a2/q4/autoencoder_128.pt (torch, 808720 bytes, 4 tensors)

encoder.0.weight f4 [128, 784]
-0.028190168 0.007803414 0.022624876 0.029134866 0.021974076 0.024972454 -0.026976913 0.006303873
0.031044047 0.025061041 0.0046122596 -0.005420476 -0.0068569575 0.0017662868 -0.029081887 0.013142187
-0.017335411 -0.010512438 0.025380492 -0.004141949 0.010607358 -0.017237127 0.008873656 -0.006934384
-0.004984336 0.025137726 -0.0074041914 0.007918183 0.030939762 0.0044781603 -0.017428404 -0.011519875
0.017010316 -0.025012255 -0.0124230515 -0.0127522405 0.005679935 -0.00095802173 -0.025913224 0.029355075
-0.014321933 0.0014108162 -0.001517925 -0.009497857 -0.035567876 -0.000192862 -0.023293117 -0.026321774
-0.0035526566 0.0032389052 -0.015393352 -0.003845606 -0.019528816 0.022649664 -0.0345304 0.022001807
0.02670287 0.015750874 -0.008964628 -0.029349763 0.035009358 -0.0014168695 0.029942233 -0.031403773
0.010731794 -0.026368866 0.00747443 -0.0027778149 -0.014108463 -0.015251143 -0.04134641 0.02382315
-0.035606056 0.009486591 -0.015366254 -0.012764724 -0.04273629 -0.0022187873 -0.017364306 0.0108129755
0.0058072805 0.007934652 0.02364621 0.028711896 -0.016132377 -0.009943541 0.022683263 0.016869336
0.012958262 -0.03331723 0.0051914956 -0.016376045 0.012752848 -0.016494386 0.0062944456 -0.0011871565
0.014885701 -0.0029104482 0.02413749 0.012710738 0.016848382 -0.012401978 5.754887e-05 -0.0041987235
-0.009738487 0.019061433 -0.015125153 -0.001317697 0.025179923 -0.0032322125 0.009484056 -0.008239435
0.025067922 -0.022558788 0.0018050261 -0.025641937 -0.008317788 0.012033956 0.002825764 0.018362291
0.016118862 0.004426145 -0.009177262 -0.016667621 -0.008659187 0.003929135 -0.0039009657 0.01565872
-0.016600586 -0.03882418 -0.0052715605 -0.00415198 -0.02188634 0.014968337 0.01318956 0.011131469
0.020257466 0.02476354 -0.04195414 0.0040006675 -0.0045884885 0.027400915 -0.0067619253 -0.013352105
0.0024355138 -0.0033790325 0.003491321 0.012009625 -0.009523428 0.0071078776 -0.022311185 -0.05121349
-0.011832587 0.08531786 0.079463966 0.05463651 0.0644284 0.028907206 0.018824544 -0.017984992
-4.1975283e-05 -0.048664782 0.033402525 0.021475112 0.015448501 0.011841778 -0.016307492 0.03468096
0.025403522 -0.024695955 -0.008490227 -0.018526385 0.0007777676 -0.0020007845 -0.008048802 0.032393713
0.020685568 0.008872896 -0.031799898 -0.056859314 -0.032865983 0.04293943 0.06309268 0.066872455
0.045242384 -0.011125895 0.01920322 0.01284645 0.026441034 -0.0013273574 -0.006133511 0.0017620085
-0.02828184 -0.028250465 0.007842058 0.02613857 0.02545112 0.017784916 0.0129001625 -0.008966637
0.0020730763 0.01634962 0.0021411434 -0.0046026553 0.020577889 0.04556202 -0.0075267544 -0.040480427
-0.0021573852 0.013958373 0.035723094 0.011149049 0.028260333 -0.033923484 -0.032129485 0.012935465
0.018842 0.034693003 0.036243554 0.006674966 -0.034384575 -0.016026298 -0.008156457 -0.015664255
-0.031236555 0.003018435 0.01664659 -0.030171525 0.006747958 -0.020274475 -0.021712907 0.011630232
0.002274783 0.05758304 0.006880697 -0.011853637 -0.031328503 -0.018632863 0.031265344 0.019805126
0.017792711 -0.00588876 -0.05538651 -0.011389069 0.06461246 0.03460945 -0.005371539 -0.045653224
-0.05711984 0.0023795103 -0.00736602 -0.03033271 -0.031312544 0.0011651553 0.008725484 -0.014434334
00000000: 11ef e6bc c8b3 ff3b ce57 b93c 3eac ee3c
00000010: fa02 b43c 0893 cc3c b0fe dcbc b890 ce3b
00000020: 1650 fe3c d04c cd3c 7022 973b 409e b1bb
00000030: 54b0 e0bb c082 e73a 233d eebc 5452 573c
00000040: fe02 8ebc 5c3c 2cbc c0ea cf3c 30b9 87bb
00000050: 7cca 2d3c e034 8dbc d062 113c d439 e3bb
00000060: a453 a3bb a2ed cd3c dc9e f2bb 44bb 013c
00000070: 6275 fd3c 88bd 923b 03c6 8ebc dcbd 3cbc
00000080: 3859 8b3c 80e6 ccbc 0e8a 4bbc c6ee 50bc
00000090: c01e ba3b c023 7bba f847 d4bc 0e7a f03c
000000a0: 8aa6 6abc 23eb b83a 1cf5 c6ba e69c 1bbc
000000b0: 9faf 11bd 003b 4ab9 35d1 bebc c3a0 d7bc
000000c0: b0d3 68bb d043 543b 6634 7cbc 9006 7cbb
000000d0: e5fa 9fbc ca8b b93c c06f 0dbd 223d b43c
000000e0: fabf da3c fa07 813c 60e0 12bc ea6e f0bc
000000f0: f965 0f3d 40b6 b9ba 6a49 f53c 3ea1 00bd
00000100: 68d4 2f3c 8503 d8bc 10ec f43b 000c 36bb
00000110: 2f27 67bc eedf 79bc da5a 29bd c428 c33c
00000120: a8d7 11bd a66d 1b3c bec2 7bbc 2223 51bc
00000130: 3f0c 2fbd 1369 11bb 973f 8ebc e828 313c
00000140: 004b be3b 5800 023c b2b5 c13c 3635 eb3c
00000150: 0c28 84bc 3cea 22bc 40d2 b93c 9031 8a3c
00000160: e44e 543c a677 08bd 6c1d aa3b 0e27 86bc
00000170: 52f1 503c 3c1f 87bc a341 ce3b 5d9a 9bba
00000180: 28e3 733c 38bd 3ebb fcbb c53c b340 503c
00000190: 9e05 8a3c aa31 4bbc a160 7138 7295 89bb
000001a0: 2d8e 1fbc b926 9c3c 7dcf 77bc 93b6 acba
000001b0: 2046 ce3c 87d3 53bb 0463 1b3c b2fe 06bc
000001c0: 3e5b cd3c 35cd b8bc a096 ec3a 0a0f d2bc
000001d0: 5547 08bc 122a 453c 7430 393b 846c 963c
000001e0: b40b 843c 3209 913b 3a5c 16bc 898a 88bc
000001f0: 43df 0dbc f9bf 803b 58a7 7fbb b746 803c
00000200: f4fd 87bc 1a06 1fbd 0ebd acbb 550d 88bb
00000210: fb4a b3bc c13d 753c 0619 583c c460 363c
00000220: fcf2 a53c e8dc ca3c 1bd8 2bbd 0818 833b
00000230: 085b 96bb e277 e03c 2493 ddbb cac2 5abc
00000240: 249d 1f3b c272 5dbb a6ce 643b 05c4 443c
00000250: 2708 1cbc 33e9 e83b f2c5 b6bc 3dc5 51bd
00000260: 78dd 41bc 21bb ae3d 01be a23d 88ca 5f3d
00000270: 09f3 833d cece ec3c ee35 9a3c 4355 93bc
00000280: 9e0e 30b8 b954 47bd 16d1 083d 93ec af3c
00000290: b61b 7d3c 0404 423c 4a97 85bc 9f0d 0e3d
000002a0: 0c1b d03c 2c4f cabc 981a 0bbc a5c4 97bc
000002b0: 1ae3 4b3a 981f 03bb 1fdf 03bc 45af 043d
000002c0: c874 a93c a05f 113c 9c40 02bd 50e5 68bd
000002d0: 7b9e 06bd 41e1 2f3d bc36 813d 6df4 883d
000002e0: 1450 393d 6349 36bc 1250 9d3c eb79 523c
000002f0: de9a d83c b9fa adba 9ffb c8bb 32f3 e63a
00000300: 51af e7bc 856d e7bc fa7b 003c 8e20 d63c
00000310: de7e d03c acb1 913c 345b 533c cde8 12bc
00000320: 73dc 073b a3ef 853c 6d52 0c3b dfd1 96bb
00000330: f692 a83c 3e9f 3a3d fea2 f6bb cece 25bd
00000340: eb62 0dbb a9b1 643c 6152 123d 80aa 363c
00000350: 3782 e73c 5af3 0abd 359a 03bd 46ef 533c
00000360: 8a5a 9a3c 401a 0e3d 1f74 143d acb9 da3b
00000370: d7d6 0cbd 9549 83bc a9a2 05bc 5352 80bc
00000380: cee3 ffbc f0d0 453b 6e5e 883c 462a f7bc
00000390: f91d dd3b a816 a6bc 44df b1bc bb8c 3e3c
000003a0: 8714 153b 32dc 6b3d 7877 e13b c235 42bc
000003b0: 5152 00bd f2a3 98bc 1710 003d 5c3e a23c
000003c0: 05c2 913c 80f6 c0bb f7dc 62bd 3899 3abc
000003d0: 8a53 843d a3c2 0d3d bc03 b0bb e0fe 3abd
000003e0: 7ef6 69bd 8ff1 1b3b a85e f1bb 4e7c f8bc
000003f0: 9541 00bd 20b8 983a 55f5 0e3c fc7d 6cbc

encoder.0.bias f4 [128]
0.04501281 0.036394738 -0.021679956 0.08555176 -0.0044385274 -0.0066247657 -0.0057749124 -0.034004364
0.012101543 0.011899037 0.025436014 0.01810187 -0.026710082 0.037443608 0.024405308 0.07163244
-0.020170718 -0.034137115 -0.011575865 -0.02806969 -0.020928994 0.031046566 0.04425894 -0.051776852
0.12457328 0.009330046 0.03198485 0.00035581793 0.010259152 -0.02106454 -0.034989968 0.038821697
-0.024862407 -0.011389517 0.0069421106 0.024773108 0.03659757 0.08312754 0.04488299 0.05173429
-0.031734303 0.027115293 0.038519114 0.015108561 0.0015536966 -0.024444532 0.016340699 0.017524093
-0.015705679 0.0336079 0.009966217 0.041703336 0.04236593 0.054519273 0.024372177 -0.03463616
0.022776332 0.020013925 0.008603421 -0.024601288 -0.010375069 -0.042232826 -0.01590993 0.023459654
0.008872683 0.06273989 -0.02111492 -0.00017550326 -0.017632546 -6.975394e-05 -0.02414155 -0.013522734
-0.013493266 0.057334147 -0.0070371195 0.02462128 0.02431018 -0.03968502 0.040178057 -0.052083973
-0.015888972 -1.0810052e-05 -0.012269728 -0.031092834 0.017520003 0.0072016064 -0.0284939 -0.015764685
0.06424898 0.030960131 0.009133249 0.02983872 -0.022390272 0.06097084 -0.0065363348 0.13084269
0.01273434 -0.018566273 0.012731912 -0.03258903 0.002971594 0.034525387 0.020896215 0.04145297
0.011951132 0.03672879 0.031652708 0.008371455 0.01333213 0.00030541985 0.08700832 -0.061017483
0.06853532 0.07573482 0.029487066 0.06494914 0.002023818 0.06697947 -0.012594642 -0.031599913
0.023633668 -0.017581489 -0.022346355 -0.00025342815 0.0010620006 -0.011469139 -0.002128272 0.015862117
00000000: 5a5f 383d a612 153d 2a9a b1bc c335 af3d
00000010: 1171 91bb 9014 d9bb 7a3b bdbb 2948 0bbd
00000020: 8d45 463c 2ef4 423c 305f d03c 5f4a 943c
00000030: 1acf dabc 785e 193d a4ed c73c 07b4 923d
00000040: 103d a5bc 5cd3 0bbd b2a8 3dbc 68f2 e5bc
00000050: 4873 abbc 5e55 fe3c dd48 353d f713 54bd
00000060: 4720 ff3d 0ddd 183c 8c02 033d 138d ba39
00000070: 0116 283c 8b8f acbc a451 0fbd 8003 1f3d
00000080: 3fac cbbc 199b 3abc a57a e33b f9f0 ca3c
00000090: 55e7 153d c63e aa3d 3ad7 373d 56e7 533d
000000a0: d4fb 01bd e420 de3c 38c6 1d3d e689 773c
000000b0: 68a5 cb3a e63f c8bc eedc 853c b08e 8f3c
000000c0: 32a9 80bc 70a8 093d 5849 233c 1ed1 2a3d
000000d0: e687 2d3d 9a4f 5f3d 29a8 c73c a5de 0dbd
000000e0: 6e95 ba3c 3ef4 a33c 5df5 0c3c a488 c9bc
000000f0: 32fc 29bc 54fc 2cbd 8b55 82bc 762e c03c
00000100: bb5e 113c c57d 803d 32f9 acbc 4c07 38b9
00000110: 2172 90bc dd48 92b8 80c4 c5bc 758e 5dbc
00000120: dc12 5dbc 36d7 6a3d a397 e6bb 91b2 c93c
00000130: 2526 c73c c28c 22bd bf91 243d 0156 55bd
00000140: 9729 82bc d25c 35b7 f806 49bc 66b6 febc
00000150: 1c86 8f3c 74fb eb3b 0a6c e9bc f124 81bc
00000160: f894 833d 1aa0 fd3c 9fa3 153c 5570 f43c
00000170: ce6b b7bc 8fbc 793d c02e d6bb a0fb 053e
00000180: b1a3 503c 4c18 98bc 8299 503c 137c 05bd
00000190: 13bf 423b 7e6a 0d3d 8a2e ab3c 97ca 293d
000001a0: aece 433c ed70 163d 45a6 013d 6d28 093c
000001b0: 026f 5a3c c220 a039 6b31 b23d 78ed 79bd
000001c0: 3f5c 8c3d db1a 9b3d dc8e f13c 0e04 853d
000001d0: 08a2 043b 882c 893d c259 4ebc e96e 01bd
000001e0: 659b c13c 0e07 90bc b40f b7bc 8dde 84b9
000001f0: d432 8b3a 0ee9 3bbc 7b7a 0bbb 45f1 813c

decoder.0.weight f4 [784, 128]
-0.016993428 0.0066301785 0.01188986 -0.005941717 0.015527484 0.06292236 -0.0035793341 0.07979845
-0.00095533585 -0.02492092 -0.0100923125 -0.0019259407 -0.03906378 -0.0065922653 0.010545095 0.0025914675
0.01622673 -0.0076791705 -0.016590163 0.021349207 -0.07615496 -0.022191366 0.0041639456 0.0043117385
0.005670491 -0.019413395 0.021225601 -0.025809573 -0.04368003 -0.00468485 0.025522305 0.023323022
0.052311227 -0.060914494 -0.0041816426 0.00032178534 0.022610275 0.029861443 -0.005417873 -0.004954787
0.07090785 -0.021939708 -0.006647472 0.00024179419 0.015223441 -0.05728088 -0.0035524757 0.077780746
0.04386266 0.02068925 -0.05279683 -0.005550748 0.017247751 -0.0055965683 0.058171257 -0.0146374535
-0.04636899 -0.0021152685 0.030953772 -0.0060092015 0.0085815955 0.028465427 -0.024781395 -0.009969895
-0.0006065868 -0.0042473944 0.019219903 -0.070893474 0.0040792846 -0.0014592512 0.01470195 -0.0064949775
-0.050893154 -0.025879681 -0.023494665 -0.02751041 0.040544037 0.06928551 0.004405544 0.042366732
-0.01607917 0.03830064 -0.092723355 0.041122284 0.03190072 0.05926087 -0.0017556786 0.04263551
0.009438548 -0.025217343 0.0037945167 0.020970909 -0.06804417 -0.034784075 -0.012255335 -0.0016725856
-0.011906167 -0.06694447 -0.04484926 -0.032974865 -0.06671935 -0.0005117763 -0.007428142 0.0025413202
-0.0054242495 0.019613823 0.018782655 -0.036771502 0.01590614 0.018019108 -0.004215197 0.011280091
0.01852792 0.007859976 -0.021376647 0.026205523 0.02169941 0.00906224 0.06469306 -0.094059214
0.010459558 -0.033409376 0.03406034 0.008035928 0.00030332714 -0.0060748835 -0.021589544 -0.017143685
0.0016465323 -0.002157036 -0.0032552439 -0.0066196998 0.023990586 -0.0540424 -0.004199094 0.0688399
-0.029725991 -0.043544862 -0.0009502455 -0.017633041 -0.02100146 -0.016954022 -0.042486135 -0.0010906929
-0.01808475 0.00285518 -0.00727743 -0.007964538 0.054080892 -0.0074672177 -0.014313797 -0.0059320186
-0.008800497 0.0058304598 -0.005031418 -0.0003372398 0.02027575 -0.003916755 0.064554036 0.009760726
-0.023033481 -0.024482587 -0.028603908 -0.00083932816 0.023979865 0.0006634714 -0.004172357 -0.00025460936
0.051743757 0.0036832266 0.004934952 -0.018050067 -0.0032546092 0.009714472 0.0074218567 0.06478973
-0.07037027 0.016207036 -0.092927836 -0.0058608344 -0.0004794413 0.0018031182 0.028576763 0.014248407
-0.0014528189 0.014106204 -0.0028943976 0.006866419 0.008800547 -0.0059304293 -0.0051549557 0.008174695
-0.01812387 0.008050496 0.02197084 0.01241814 -0.08776945 0.042600263 0.031014003 0.0048003946
0.012446329 -0.0039677853 0.012285294 -0.002019866 0.021184664 0.06800246 -0.012762016 0.0005650133
0.00094158365 -0.07802153 0.07706134 0.068267494 0.018272227 0.07249734 0.0063060652 -0.0012851133
-0.0036733318 0.0070348307 0.015984911 -0.007213756 0.055522 -0.0064985924 0.044147883 0.0013667955
0.0017911725 0.017098745 0.041982763 0.075107165 0.00130289 0.010778006 -0.0058789114 -0.0138282925
0.0040187114 -0.010401511 -0.0058757006 0.045271896 -0.050749563 -0.017442843 -0.014842662 0.028006144
0.0012454753 0.012423887 -0.009899993 -0.00318604 -0.0056480975 -0.0050352686 0.078752235 0.036536235
0.0010759571 0.016517758 -0.018903144 -0.0016622563 -0.0001316022 0.008363353 0.0018839142 0.014074192
00000000: cd35 8bbc f841 d93b b0cd 423c bcb2 c2bb
00000010: fd66 7e3c 70dd 803d 4393 6abb 5f6d a33d
00000020: 816f 7aba f526 ccbc 3a5a 25bc d96f fcba
00000030: 5801 20bd ee03 d8bb 56c5 2c3c 9cd5 293b
00000040: ebed 843c 8da1 fbbb 18e8 87bc 88e4 ae3c
00000050: 22f7 9bbd abca b5bc b571 883b 7c49 8d3b
00000060: 87cf b93b d708 9fbc 50e1 ad3c 996e d3bc
00000070: d5e9 32bd 5f83 99bb 2714 d13c ec0f bf3c
00000080: 4c44 563d 7a81 79bd 2906 89bb 4cb5 a839
00000090: 2f39 b93c fc9f f43c 6a88 b1bb c45b a2bb
000000a0: 2338 913d e7ba b3bc 09d3 d9bb 228a 7d39
000000b0: bd6b 793c 5b9f 6abd a7d0 68bb 834b 9f3d
000000c0: 55a9 333d 817c a93c 7d41 58bd 0de3 b5bb
000000d0: 284b 8d3c 6b63 b7bb fc44 6e3d eed1 6fbc
000000e0: 69ed 3dbd 51a0 0abb c492 fd3c d6e8 c4bb
000000f0: d299 0c3c 5430 e93c 5a02 cbbc c558 23bc
00000100: 5a03 1fba ba2d 8bbb 0f73 9d3c 9930 91bd
00000110: 85ab 853b 5844 bfba 73e0 703c d2d3 d4bb
00000120: 5775 50bd a001 d4bc e277 c0bc 835d e1bc
00000130: 8111 263d 90e5 8d3d 625c 903b bd88 2d3d
00000140: 77b8 83bc 22e1 1c3d bee5 bdbd d76f 283d
00000150: 54aa 023d 87bb 723d cc1e e6ba 93a2 2e3d
00000160: 24a4 1a3c 9a94 cebc 6dad 783b 2fcb ab3c
00000170: be5a 8bbd bf79 0ebd 9aca 48bc a93a dbba
00000180: 1512 43bc 2f1a 89bd dcb3 37bd a710 07bd
00000190: 28a4 88bd ba28 06ba c567 f3bb 478c 263b
000001a0: e7bd b1bb 2bad a03c 15de 993c b79d 16bd
000001b0: 984d 823c cf9c 933c a31f 8abb 21d0 383c
000001c0: ddc7 973c 21c7 003c 141e afbc f7ac d63c
000001d0: f6c2 b13c ca79 143c cc7d 843d 1ea2 c0bd
000001e0: 915e 2b3c 45d8 08bd db82 0b3d 20a9 033c
000001f0: e107 9f39 d10f c7bb 8edc b0bc ea70 8cbc
00000200: 75d0 d73a 0f5d 0dbb ee55 55bb 11ea d8bb
00000210: e887 c43c 905b 5dbd 8e98 89bb effb 8c3d
00000220: ec83 f3bc 195c 32bd e519 79ba 2b73 90bc
00000230: 410b acbc 29e3 8abc f105 2ebd 95f5 8eba
00000240: 7826 94bc f91d 3b3b 8277 eebb b27d 02bc
00000250: ed83 5d3d 90af f4bb 6a84 6abc 6161 c2bb
00000260: f62f 10bc 710d bf3b 98de a4bb 8fcf b0b9
00000270: 5419 a63c 1f58 80bb e834 843d 74eb 1f3c
00000280: b6b0 bcbc b58f c8bc be52 eabc 5c06 5cba
00000290: 6c71 c43c d0ec 2d3a 44b8 88bb 177d 85b9
000002a0: 43f1 533d 4a62 713b 61b5 a13b bcdd 93bc
000002b0: 484b 55bb 7329 1f3c 0c33 f33b 7ab0 843d
000002c0: 4a1e 90bd 9ec4 843c f350 bebd 3e0c c0bb
000002d0: 865d fbb9 9b56 ec3a d119 ea3c 2772 693c
000002e0: 836c beba b51d 673c efaf 3dbb b3ff e03b
000002f0: 2b30 103c 0c54 c2bb e7ea a8bb 28ef 053c
00000300: 8378 94bc 3ae6 033c 31fc b33c 7475 4b3c
00000310: 78c0 b3bd 9d7d 2e3d 1411 fe3c a14c 9d3b
00000320: b0eb 4b3c 3204 82bb 4248 493c ba5f 04bb
00000330: 768b ad3c e044 8b3d c617 51bc 671d 143a
00000340: 9cd4 763a c0c9 9fbd 56d2 9d3d d4cf 8b3d
00000350: a3af 953c 7c79 943d 1ca3 ce3b 3f71 a8ba
00000360: 48bc 70bb 7084 e63b caf2 823c 5f61 ecbb
00000370: 096b 633d 25f2 d4bb 69d4 343d 0c26 b33a
00000380: c7c5 ea3a ab12 8c3c 1ef6 2b3d c9d1 993d
00000390: bcc5 aa3a 3c96 303c e2a3 c0bb 1090 62bc
000003a0: 65af 833b 196b 2abc f388 c0bb 066f 393d
000003b0: c6de 4fbd 4be4 8ebc a32e 73bc 246d e53c
000003c0: 373f a33a 8f8d 4b3c 9533 22bc e2cc 50bb
000003d0: ad13 b9bb e5fe a4bb da48 a13d 05a7 153d
000003e0: 2107 8d3a 4050 873c c4da 9abc 11e0 d9ba
000003f0: b2fe 09b9 7206 093c aced f63a 7197 663c

decoder.0.bias f4 [784]
0.001564687 0.004018056 0.021252725 0.015211739 -0.0137691265 -0.018660117 0.005800847 -0.002117347
-0.010838576 0.012201146 -0.0072209113 -0.0018766478 -0.0042582112 -0.01827833 0.01073251 -0.0023646287
-0.017164392 -0.0064485753 0.020667387 -0.009350063 0.00627978 0.017692892 0.003141073 0.031504765
0.0035836902 -0.009751358 0.018372154 -0.014113485 -0.00665278 -0.022927653 -0.006543077 0.0052543418
0.004379041 0.0042920345 -0.00037893435 -0.009029573 0.0005758676 -0.0049792235 -0.007841799 0.025344584
0.0053849667 -0.01901814 -0.002785868 -0.0059684636 0.00026705788 0.007441714 0.00639804 0.021695646
0.0020409143 -0.0013328972 -0.0051192082 0.00030021917 -0.014885572 0.005219313 0.016097095 0.015330335
-0.006780325 -0.024170255 -0.016890591 0.010924437 -0.026956057 0.009706155 -0.0036801372 -0.018577127
0.006537922 -0.007322861 -0.009690014 -0.022828529 -0.010067458 0.003360328 -0.015013149 0.019079812
0.0014144944 -0.032223646 0.0024789106 0.012888134 0.011484909 0.0032052847 0.004422006 -0.02369627
0.0038261772 -0.023272283 -0.009656156 -0.0035393173 0.0103303315 -0.012020344 -0.021518022 -0.009868165
0.00037317013 -0.022829687 -0.005804346 -0.014123772 0.01972996 -0.009634585 0.008222116 0.036387004
0.0015320278 0.0026877718 0.016583487 -0.009550782 0.027450198 0.038528737 0.024403602 0.015677363
0.00077743037 -0.0018412173 0.021332778 -0.009731723 0.026231743 -0.013021452 0.0033191438 0.008794416
0.016064296 0.0032934288 -0.002239374 0.013092782 0.015592628 -0.027079808 0.0006098068 0.026727289
-0.018420376 0.0061294385 0.0008669581 -0.04256868 0.017939284 0.0007384698 -0.00363376 0.015674623
-0.005176532 0.0055113668 -0.024887234 0.005080486 0.01933786 -0.019236403 0.027964978 -0.007361059
-0.044855706 0.018721625 -0.008197931 0.012815909 -0.0017767372 0.004985565 0.0017654332 0.0014809207
0.011247092 0.006742124 0.01814233 0.014837654 0.042267695 0.035388228 -0.00626533 -8.353592e-05
0.027201172 -0.026274573 -0.0166195 0.035875566 0.031068508 -0.031990927 0.0021635138 0.019619215
-0.024903541 0.04039545 -0.011653838 0.021644387 0.029475644 -0.014449341 -0.010578412 -0.0056109936
-0.01181179 0.0040495577 -0.00621953 -0.010961156 -0.011536276 0.013679476 0.041326422 0.016567392
0.042022005 -0.018231407 -0.045408655 -0.01692674 0.033386968 -0.026678687 0.0038500424 -0.013137076
-0.04021969 0.027920384 -0.0010923785 -0.024667831 0.02664252 -0.043491572 0.031625703 0.04480036
0.0006011005 -0.036072545 0.021594036 0.0013506544 0.041100282 0.011077535 -0.0030030583 -0.011024592
0.002476213 -0.023994207 -0.035344515 -5.7237972e-05 -0.032945536 -0.045025915 0.01036268 0.046452425
0.006258043 -0.047283374 -0.046173807 -0.04911123 0.006045111 -0.01255963 0.035997074 0.020248342
0.022056172 -0.014525479 0.03504892 0.049637757 -0.02927188 0.008052676 -0.0047271964 -0.014968692
0.017202338 0.004671831 -0.031230038 -0.011843165 0.009003319 -0.028821548 -0.04326142 -0.0013815111
-0.013593946 -0.062902875 0.057948254 0.029747983 0.026087534 0.026753126 -0.026092349 -0.010250434
-0.076809414 -0.04077058 0.03381275 -0.054296695 0.04202939 0.044606097 -0.005024927 0.0038466773
-0.032562874 -0.032990295 0.029399803 0.020623302 0.002574474 -0.0038869975 0.005277695 -0.0045010084
00000000: 2f16 cd3a e6a9 833b 321a ae3c a83a 793c
00000010: e797 61bc 1add 98bc 0815 be3b 30c3 0abb
00000020: 4894 31bc 51e7 473c 659d ecbb daf9 f5ba
00000030: 7788 8bbb 70bc 95bc 69d7 2f3c e3f7 1abb
00000040: 579c 8cbc 924e d3bb a74e a93c 0231 19bc
00000050: 9dc6 cd3b aff0 903c 76da 4d3b 240b 013d
00000060: 58dc 6a3b 29c4 1fbc 3381 963c 3f3c 67bc
00000070: 90ff d9bb c6d2 bbbc 4f67 d6bb 9d2c ac3b
00000080: 0f7e 8f3b 32a4 8c3b b5ab c6b9 c6f0 13bc
00000090: d2f5 163a c128 a3bb e47a 00bc 729f cf3c
000000a0: 6074 b03b eecb 9bbc 1c93 36bb 1a93 c3bb
000000b0: e703 8c39 9fd9 f33b a6a6 d13b 11bb b13c
000000c0: dcc0 053b 9cb4 aeba 08bf a7bb bc66 9d39
000000d0: 9de2 73bc c506 ab3b 0ede 833c 162c 7b3c
000000e0: 7d2d debb b300 c6bc 235e 8abc 69fc 323c
000000f0: f3d2 dcbc 9106 1f3c 752e 71bb 0f2f 98bc
00000100: 113c d63b 9cf4 efbb ddc2 1ebc e502 bbbc
00000110: fbf1 24bc f338 5c3b b6f9 75bc 444d 9c3c
00000120: 8e66 b93a f1fc 03bd 3875 223b c128 533c
00000130: 332b 3c3c c10f 523b 7ae6 903b ae1e c2bc
00000140: 9ac0 7a3b 84a5 bebc db34 1ebc e4f3 67bb
00000150: 8d40 293c faf0 44bc 9046 b0bc 15ae 21bc
00000160: 0ca6 c339 5305 bbbc 6232 bebb 6567 67bc
00000170: baa0 a13c 61da 1dbc 0eb6 063c 8a0a 153d
00000180: 53ce c83a 5425 303b 18da 873c e27a 1cbc
00000190: 3ddf e03c 4fd0 1d3d 10ea c73c d06d 803c
000001a0: 78cc 4b3a 0055 f1ba 14c2 ae3c ce71 1fbc
000001b0: f4e3 d63c ee57 55bc fe85 593b 7416 103c
000001c0: 4599 833c 91d6 573b 76c2 12bb 1c83 563c
000001d0: 3978 7f3c 79d6 ddbc 71db 1f3a 30f3 da3c
000001e0: 54e6 96bc 75d9 c83b 9344 633a 7f5c 2ebd
000001f0: 68f5 923c df95 413a 6024 6ebb 1168 803c
00000200: e69f a9bb b298 b43b 50e0 cbbc 357a a63b
00000210: 6f6a 9e3c a995 9dbc cf16 e53c 0a35 f1bb
00000220: 9eba 37bd 185e 993c 9d50 06bc d2f9 513c
00000230: 68e1 e8ba f35d a33b 1c66 e73a 741b c23a
00000240: b945 383c 09ed dc3b 399f 943c a219 733c
00000250: e420 2d3d 3ff3 103d 664d cdbb 0130 afb8
00000260: fed4 de3c c63d d7bc 9e25 88bc 42f2 123d
00000270: 6283 fe3c eb08 03bd bdc9 0d3b 7ab8 a03c
00000280: 8302 ccbc b375 253d bdef 3ebc 924f b13c
00000290: e876 f13c eebc 6cbc 1351 2dbc 6ddc b7bb
000002a0: 3d86 41bc 27b2 843b 33cd cbbb 6c96 33bc
000002b0: a602 3dbc e21f 603c e545 293d 57b8 873c
000002c0: 441f 2c3d 085a 95bc 6dfe 39bd f2a9 8abc
000002d0: c6c0 083d 438d dabc fe50 7c3b e43c 57bc
000002e0: 67bd 24bd 4ab9 e43c 242e 8fba 3114 cabc
000002f0: 6a41 da3c 3824 32bd f489 013d 9580 373d
00000300: 2c93 1d3a cec0 13bd fae5 b03c 7108 b13a
00000310: c558 283d 8d7e 353c f5ce 44bb 7ea0 34bc
00000320: f647 223b 808f c4bc 69c5 10bd ce12 70b8
00000330: e6f1 06bd 186d 38bd 3bc8 293c e644 3e3d
00000340: 4510 cd3b 36ac 41bd bf20 3dbd db28 49bd
00000350: 1116 c63b e8c6 4dbc ab71 133d dadf a53c
00000360: 25af b43c 46fc 6dbc 758f 0f3d f650 4b3d
00000370: 95cb efbc 5fef 033c 99e6 9abb 3f3f 75bc
00000380: ebeb 8c3c 2916 993b 23d6 ffbc d609 42bc
00000390: a882 133c 2b1b ecbc e332 31bd d213 b5ba
000003a0: 24b9 5ebc 39d3 80bd 265b 6d3d 0bb2 f33c
000003b0: 86b5 d53c 5f29 db3c 9fbf d5bc 70f1 27bc
000003c0: 414e 9dbd 0dff 26bd 3d7f 0a3d 3666 5ebd
000003d0: 0227 2c3d e2b4 363d 25a8 a4bb 8918 7c3b
000003e0: a660 05bd d520 07bd dbd7 f03c 33f2 a83c
000003f0: 82b8 283b ffbc 7ebb 84f0 ac3b 327d 93bb
