a2/q4/autoencoder_32.pt (torch, 206216 bytes, 4 tensors)

encoder.0.weight f4 [32, 784]
0	0x3cad84dc	0.021181516
1	0xbc1bad92	-0.009501832
2	0x3c8b4b58	0.0170037
3	0xbcc95968	-0.024578765
4	0x3bc5bc10	0.0060343817
5	0xbbe2be24	-0.006919639
6	0x3c876460	0.016527355
7	0x3c8560e4	0.016281553
8	0xbc7608ee	-0.015016777
9	0x3cbe7dcc	0.023253344
10	0xbae5dda0	-0.0017537363
11	0x3b21b8b0	0.0024676733
12	0x3c3d42d0	0.011551574
13	0xbca99105	-0.020699034
14	0x3ce608de	0.0280804
15	0x3cc6835c	0.024232559
16	0xbcb39470	-0.021921366
17	0xbd09c1b5	-0.033632
18	0xbc74f378	-0.014950626
19	0x3c39b0e4	0.011333678
20	0xbd0bc2e4	-0.03412141
21	0x3cfb8c5e	0.03070658
22	0xbbf0db54	-0.0073503647
23	0xbc49f320	-0.012326032
24	0xbcf3507c	-0.029701464
25	0x3d0c6c5b	0.034283023
26	0x3ca6fb50	0.020383507
27	0xbcf31eca	-0.029677767
28	0xbc9a2787	-0.018817676
29	0xbcd4eada	-0.025990892
30	0x3a03c440	0.0005026497
31	0xbce843d1	-0.02835265
32	0x3cf1f072	0.029533599
33	0x3c86f2fe	0.01647329
34	0x3beddaa8	0.007258732
35	0xbb9f7c78	-0.0048671328
36	0x3c260640	0.010133326
37	0x3d0d2e5b	0.034468036
38	0x3b83ac28	0.0040183254
39	0x3d0bed39	0.03416178
40	0xbd019dbc	-0.031644568
41	0xbc15ba8a	-0.009138713
42	0xbb8c7468	-0.0042863376
43	0x3a89ec20	0.0010522641
44	0x3b9479b0	0.004531108
45	0x3c9c1f00	0.01905775
46	0x3cd25992	0.025677476
47	0x3ca86c82	0.020559553
48	0xbcf75bcc	-0.03019514
49	0xbbfe1ec8	-0.0077551343
50	0x3bb29988	0.0054504313
51	0xbc133372	-0.0089844335
52	0x3b28e590	0.0025771596
53	0xbcd0a9b8	-0.025471553
54	0x3be9e5f0	0.0071380064
55	0xbc86c16c	-0.016449653
56	0x3d03425f	0.03204572
57	0x3cc50936	0.024052244
58	0x3c6b3434	0.014355708
59	0x3c3ba178	0.011452071
60	0x3c42a958	0.011881195
61	0x3d001d5b	0.031277996
62	0xbcf36c33	-0.02971468
63	0xbbd3dfa4	-0.006465869
64	0x3d08ca13	0.033395838
65	0xbd007fc8	-0.03137186
66	0xbc6c49c0	-0.01442188
67	0x3b923ad0	0.0044625774
68	0x3c1891bc	0.0093120895
69	0x3c49fc90	0.012328282
70	0xbcd30895	-0.025760928
71	0xbcc80d15	-0.0244203
72	0x3c5a2d68	0.01331649
73	0x3cdd87c6	0.02704228
74	0x3ce69d0a	0.028151054
75	0x3ca715c6	0.020396125
76	0xbd067a5d	-0.03283154
77	0x3c8f6e82	0.017508749
78	0xbbe2c000	-0.006919861
79	0xbc0379ea	-0.008024672
80	0xbb9318e4	-0.004489051
81	0x3c320a3c	0.010866698
82	0xbc7a18ae	-0.015264673
83	0xbc6d8580	-0.014497161
84	0xbcdee5f8	-0.027209267
85	0xbb57efb0	-0.0032949261
86	0x3cf9bf42	0.030486707
87	0xbc8fd880	-0.01755929
88	0x3969d300	0.00022299215
89	0x3c96aa1e	0.018391665
90	0xbce44535	-0.027865032
91	0xbc02589c	-0.007955696
92	0x3c7bf030	0.015377089
93	0x3bfb1128	0.0076619573
94	0x3bf54670	0.0074852034
95	0x3cac67f6	0.021045666
96	0xbbcc2294	-0.006229708
97	0x3b851248	0.004061017
98	0xbc47b280	-0.012188554
99	0xb94a3500	-0.00019283965
100	0x3caab89e	0.020839985
101	0x3ccba91a	0.024860907
102	0x3c533844	0.012891833
103	0x3cfc09ce	0.030766394
104	0xbd001902	-0.03127385
105	0x3cd22641	0.025653007
106	0xbd136cd0	-0.035992444
107	0xbd128889	-0.03577474
108	0xbc3cc5ea	-0.011521796
109	0xbcc2ab3e	-0.023763295
110	0xbcb39238	-0.021920308
111	0xbc9084a5	-0.017641375
112	0x3c53bf08	0.012923963
113	0x3c379724	0.011205468
114	0x3ce05d32	0.027388189
115	0x3d0a6c97	0.033794966
116	0xbcf8ee88	-0.030387178
117	0xbbb5fc80	-0.005553782
118	0xbd10e617	-0.03537568
119	0xbc694f3c	-0.014240082
120	0xbc9bb8db	-0.019009044
121	0x3c47850e	0.012177719
122	0xbc4e417b	-0.012588854
123	0x3bafbc36	0.0053630127
124	0x3c2571d4	0.0100979395
125	0xbd11bea3	-0.035582196
126	0xbb4d8c12	-0.0031364006
127	0xbcd3a4bb	-0.025835386
128	0xbd239429	-0.03993622
129	0xbcdf70cf	-0.027275471
130	0xbc9a00a4	-0.018799134
131	0x3ca036eb	0.019557437
132	0x3bb264c3	0.0054441406
133	0x3c38cbd5	0.011279066
134	0xbc6ee36a	-0.014580587
135	0xbce09ae1	-0.027417602
136	0x3bedb112	0.0072537744
137	0xbc20d1f3	-0.009815681
138	0x3cf09e12	0.029372249
139	0xbc920b10	-0.01782754
140	0x3c633528	0.013867654
141	0x3ca09ea0	0.019606888
142	0xbd0e69d3	-0.03476889
143	0xbbeebdd4	-0.007285813
144	0xbca0fc3e	-0.019651528
145	0x3c00776e	0.007840974
146	0xbd207401	-0.03917313
147	0x3ccdd153	0.025124228
148	0xbd256901	-0.040383343
149	0x3cc5fe4a	0.024169106
150	0xbcdd4208	-0.027009025
151	0x3b1087d9	0.0022053628
152	0xbd2bda9b	-0.041956525
153	0x3cd20214	0.025635757
154	0x3ca79bbf	0.020460008
155	0xbd0cdeb5	-0.034392077
156	0x3bfb871c	0.0076760184
157	0xbd0fbff4	-0.03509517
158	0xbd22a49c	-0.039707765
159	0x3b0c2d0e	0.002138916
160	0x3c8f2b34	0.017476656
161	0xbcefbeca	-0.02926578
162	0x3b7c8319	0.0038530289
163	0x3ca8464a	0.020541329
164	0x3cb9ed51	0.02269617
165	0x3c984220	0.018586218
166	0x3c81e7c0	0.015857577
167	0xbb3edb30	-0.0029122345
168	0xbc9c447e	-0.019075628
169	0x3cb78ea6	0.022406887
170	0x3cecb7da	0.028896261
171	0x3c5c8c08	0.01346112
172	0x3be35dbf	0.0069386656
173	0xbd2aee44	-0.041731134
174	0xbd3a1f32	-0.045439906
175	0x3bb49cde	0.005511864
176	0x3c066854	0.008203585
177	0xbb422a76	-0.002962736
178	0xbd121b7e	-0.03567075
179	0x3bfbc02d	0.0076828212
180	0x3b3e0a32	0.0028997776
181	0xbc2d3e56	-0.010573944
182	0xbc45bfc8	-0.01206965
183	0x3c4a6d97	0.01235523
184	0xbcef0417	-0.029176755
185	0xbc013217	-0.0078854775
186	0x3bbfcb5f	0.005853101
187	0xbc986bce	-0.018606093
188	0xbb9066a6	-0.004406768
189	0xbc4df285	-0.012570028
190	0x3cb429ec	0.021992646
191	0x3c759ded	0.014991266
192	0xbc5ac1f0	-0.013351902
193	0x3b9d1564	0.0047938097
194	0xbc896d65	-0.016775796
195	0xbbfa5f9c	-0.007640792
196	0xbcfd01f3	-0.030884719
197	0xbd029610	-0.031881392
198	0xbb80d6a8	-0.003931839
199	0xbcecb89a	-0.028896619
200	0x3cdc66fc	0.026904576
201	0x3b9da215	0.0048105814
202	0x3c833736	0.016017538
203	0xbc086dc1	-0.008326949
204	0xba221f18	-0.0006184443
205	0xbd03a16e	-0.032136373
206	0xbd16cfce	-0.03681927
207	0xbd07ec28	-0.0331842
208	0xba8a4763	-0.0010549839
209	0xbcf502b1	-0.02990851
210	0x3bf6132a	0.0075096088
211	0xba417cb7	-0.00073809497
212	0x3bf93420	0.0076050907
213	0xbbf990c7	-0.0076161358
214	0xbcf0f304	-0.029412754
215	0xbbbd8d4b	-0.0057846657
216	0x3c2dbd26	0.0106041785
217	0x3c473e04	0.012160782
218	0xbc82a4c5	-0.015947709
219	0xbd0bea76	-0.034159146
220	0x3cbd3560	0.02309674
221	0xbce75813	-0.02824024
222	0x3c73e440	0.014885962
223	0xbc9d162a	-0.019175608
224	0xbce53fbc	-0.027984492
225	0x3cb395be	0.021921989
226	0xbc8fe8fe	-0.017567154
227	0xbc9bce84	-0.019019373
228	0x3cdf8cde	0.02728885
229	0xbd1440f3	-0.036194753
230	0x3c83c9ff	0.01608753
231	0xbc5fe88f	-0.013666286
232	0x3c937731	0.01800117
233	0xbcc75df0	-0.024336785
234	0x3bda409c	0.006660534
235	0x38452422	4.700211e-05
236	0xbd19e694	-0.037573412
237	0xba916a4e	-0.0011094303
238	0xbb7c83a4	-0.0038530612
239	0x3c9fefd9	0.019523548
240	0x3c95d8ef	0.018291919
241	0xbbdb5636	-0.0066936268
242	0xbcf279aa	-0.02959903
243	0x3c876cd1	0.01653138
244	0xbcb28895	-0.021793643
245	0x3ca850c4	0.020546325
246	0xbb69679c	-0.0035614735
247	0xba446a8f	-0.0007492685
248	0xbcfda599	-0.030962752
249	0x3ce213de	0.027597364
250	0x3c2c935c	0.01053318
251	0x3b96ec10	0.0046057776
252	0x3b34a490	0.0027563907
253	0x37b81000	2.194196e-05
254	0xbc4dac52	-0.012553291
255	0x3c940e88	0.018073335

encoder.0.bias f4 [32]
0	0x3cc23c29	0.023710327
1	0x3c6f0a19	0.01458981
2	0xbd08308e	-0.03324943
3	0x3b9ae3d4	0.0047268663
4	0xbd8dec6c	-0.069298595
5	0xbc475da3	-0.012168321
6	0x3d7d7475	0.06187864
7	0x3cd0b2d6	0.0254759
8	0xbd1eb004	-0.03874208
9	0xbcbfb8e5	-0.023403594
10	0x3c52a50d	0.012856734
11	0xbce6f365	-0.028192231
12	0x3d6f12a6	0.058367394
13	0xbaf168da	-0.0018418089
14	0x3e286241	0.16443731
15	0xbbd7b2ac	-0.0065825786
16	0x3cb45f4e	0.022018101
17	0xbcf132f7	-0.029443247
18	0xbc126da0	-0.008937269
19	0xbc4cd208	-0.012501247
20	0x3b7d1827	0.0038619132
21	0xbcc3fd9e	-0.023924645
22	0xbceea397	-0.02913074
23	0xbdc1011e	-0.09424041
24	0x3c3e80bd	0.011627373
25	0xbd2f6f8c	-0.04283099
26	0x3b329028	0.0027246568
27	0xbabdce14	-0.0014480972
28	0xbbfa7fad	-0.0076446147
29	0xbd198c1d	-0.037487138
30	0x3d392c31	0.04520816
31	0x3d8a551d	0.06754515

decoder.0.weight f4 [784, 32]
0	0x3d5b8c5c	0.053600654
1	0xbd3d0f8e	-0.046157412
2	0x3d3e0777	0.046393838
3	0xbdd63868	-0.104599774
4	0xbdba9a43	-0.09111454
5	0xbdc09df0	-0.09405124
6	0x3c42e7a0	0.011896044
7	0x3dee121c	0.11624548
8	0x3cb99b9d	0.02265721
9	0xbe309fe4	-0.17248493
10	0x3cae0378	0.021241888
11	0x3d4ab4d1	0.049488846
12	0x3c213eb9	0.009841614
13	0xbd15789b	-0.03649197
14	0x3a854555	0.0010167757
15	0x3d655a3e	0.055994265
16	0x3e0e462b	0.13893954
17	0xbdcf2d08	-0.10116011
18	0x3ce68a8e	0.02814224
19	0x3d867753	0.06565728
20	0x3d9c47fc	0.076309174
21	0x3a78f130	0.0009496389
22	0x3e16be47	0.14721023
23	0x3be337d1	0.006934144
24	0x3dfa0063	0.12207105
25	0xbba5e116	-0.0050622327
26	0x3ca539a1	0.020169081
27	0x3cd38f53	0.025825178
28	0xbb2465d7	-0.0025085115
29	0x3c1fa95c	0.009744968
30	0x3c82a7be	0.015949126
31	0xbcf744aa	-0.030184109
32	0x3c271a9e	0.010199217
33	0xbc898af8	-0.016789898
34	0x3cbeac38	0.02327548
35	0xbc5da150	-0.013527229
36	0x3c225b0f	0.009909405
37	0xbe30ccb8	-0.17265594
38	0xbab9099d	-0.0014117245
39	0x3c6e30d2	0.014538007
40	0xbb828e64	-0.0039842594
41	0xbe22a783	-0.15884213
42	0xbc3bc89d	-0.011461404
43	0x3d8f718c	0.07004079
44	0xbaecb44f	-0.0018059107
45	0x3dc46610	0.095897794
46	0x39258fc6	0.00015789186
47	0x3d66dbab	0.056361835
48	0x3e166349	0.14686312
49	0x3df5ae51	0.11996139
50	0x3cbda217	0.02314858
51	0xbd05e5eb	-0.03268997
52	0xbd6ebb5f	-0.05828416
53	0xbbb30401	-0.005463124
54	0xbda17154	-0.07882944
55	0xb9a7703a	-0.00031936337
56	0xbdd5d93f	-0.10441827
57	0xbac8b8c2	-0.0015313851
58	0xbd61cac3	-0.05512501
59	0xbc9f6979	-0.019459473
60	0xba24903b	-0.00062775955
61	0xb8327d65	-4.255529e-05
62	0xbb0fd8db	-0.0021949324
63	0x3b5d8f90	0.0033807494
64	0x3e2a51b3	0.16632728
65	0xbe24ac81	-0.1608143
66	0x3def7f7f	0.1169424
67	0x3de41458	0.11136693
68	0xbbad491b	-0.005288256
69	0xbd961210	-0.07327664
70	0x3a4dbd95	0.00078483793
71	0x3d9344c2	0.07190849
72	0x3b0dea46	0.002165453
73	0x3df63700	0.12022209
74	0x3e06cc92	0.13163975
75	0xbc7f50aa	-0.015583197
76	0x3a56a6c6	0.00081883033
77	0x3d18e5e9	0.037328634
78	0xb9438b6d	-0.0001864859
79	0xbe1665ec	-0.14687318
80	0x3dd7c8b4	0.10536328
81	0xbd2831b8	-0.04106304
82	0x3ddeff34	0.1088852
83	0x3e17401c	0.1477055
84	0xbe2188dc	-0.15774864
85	0x3b4071db	0.0029364738
86	0x3e1bf066	0.15228423
87	0x3984cea7	0.0002533097
88	0x3d86fe09	0.06591422
89	0x3d1e0ad4	0.038584545
90	0xbd8b376a	-0.06797679
91	0xbe336557	-0.17519127
92	0x3992c5f3	0.00027994774
93	0xb81860ef	-3.63299e-05
94	0x3a99bc92	0.0011729172
95	0xbafd99f2	-0.0019348247
96	0xbe393132	-0.18085173
97	0xbdb1fc89	-0.086907454
98	0x3dd7a2c3	0.10529091
99	0xbdd57668	-0.10422975
100	0x3d7d8b1e	0.06190025
101	0xbe302d2e	-0.17204735
102	0xbc3a1c12	-0.011359232
103	0xbe17225f	-0.14759205
104	0xbcbf225e	-0.023331817
105	0xbc450ada	-0.012026513
106	0x3df8b597	0.121440105
107	0xbd05845a	-0.032596923
108	0xbc310db2	-0.010806488
109	0x3d3c0305	0.045901317
110	0x3a2581a6	0.00063135696
111	0x3d8cb94b	0.06871279
112	0xbe1c1682	-0.15242961
113	0x3dd70254	0.10498491
114	0xbdc449b2	-0.09584369
115	0x3d722943	0.05912138
116	0x3d237356	0.039904915
117	0xbcbe52c6	-0.023232829
118	0x3e17d4c4	0.14827257
119	0xbb80f253	-0.0039351373
120	0xbe2dbcdd	-0.16966577
121	0x3deb1b38	0.11479801
122	0xbe021d6a	-0.12706533
123	0xbe226eef	-0.1586263
124	0xbb541d1e	-0.0032365988
125	0xbb86c2cc	-0.004112577
126	0xbc796ac3	-0.015223208
127	0x3ca908e9	0.020634132
128	0xbe00d221	-0.12580158
129	0x3de62415	0.11237351
130	0x3c983d5d	0.018583948
131	0xbde72b75	-0.11287586
132	0xbd6cdc0f	-0.05782705
133	0x3d91af10	0.07113469
134	0x3c3d9ca0	0.011572987
135	0x3cb6f969	0.022335725
136	0x3cca80fd	0.02471971
137	0xbdca39e5	-0.09874324
138	0xbe119500	-0.14216995
139	0xbcaf002f	-0.021362392
140	0x3c4126c3	0.011789027
141	0xbdb10d1e	-0.0864508
142	0xbae4cea8	-0.0017456608
143	0xbe1d6118	-0.1536907
144	0xbc859426	-0.016305994
145	0x3e3a2456	0.18177924
146	0x3d357293	0.04429872
147	0x3d89494e	0.06703435
148	0xbdf9cb50	-0.12196982
149	0x3d0e3dba	0.034726836
150	0x3c85a1fc	0.016312592
151	0x3ac33ece	0.0014896037
152	0x3d099d7e	0.033597462
153	0x3e2e6376	0.17030129
154	0xbd186916	-0.037209593
155	0xbd827fd3	-0.06372037
156	0x3bb904f4	0.0056463424
157	0x3ab7818f	0.0014000403
158	0x3c83f098	0.016105935
159	0xbca66d53	-0.020315802
160	0x3cc3c7da	0.023899008
161	0xbe0f7c46	-0.1401225
162	0x3db3f065	0.08786086
163	0x3ca76205	0.020432482
164	0x3d3e0f31	0.046401206
165	0xbe0825a0	-0.13295603
166	0xbbdad869	-0.00667863
167	0x3e23ee3d	0.1600885
168	0xbc951c44	-0.018201955
169	0x3e2b177e	0.1670818
170	0x3e1a4f93	0.15069418
171	0xbe1014d2	-0.14070442
172	0xbc0d23e4	-0.008614514
173	0x3e16f00c	0.14740008
174	0x3a99ac6d	0.001172436
175	0x3c2d040d	0.010560048
176	0xbd46b890	-0.048515856
177	0x3d44656e	0.047948293
178	0x3d81af3d	0.06332252
179	0xbe2770fc	-0.16351694
180	0x3c871e0b	0.016493818
181	0xbcde8b07	-0.027165903
182	0x3e20582d	0.15658636
183	0xba8360da	-0.0010023371
184	0xbe28e30b	-0.1649286
185	0x3d1e949f	0.038715955
186	0x3c7ad469	0.015309432
187	0xbc21abcf	-0.0098676225
188	0xbb5ffbde	-0.0034177224
189	0x39e56004	0.0004374982
190	0xbc36fac1	-0.011168183
191	0x3c8453dc	0.016153269
192	0xbd1d4329	-0.038394127
193	0x3a58edf6	0.0008275205
194	0x3d6b0fb9	0.05738804
195	0xbb08c6ab	-0.0020870368
196	0x3d6d42b4	0.05792494
197	0xbd8b827a	-0.06811996
198	0xbc746953	-0.014917689
199	0xbe198aa1	-0.14994289
200	0xbc94f8ea	-0.018185098
201	0xbde97e38	-0.114010274
202	0x3cf923b0	0.030412525
203	0x3ce93907	0.028469576
204	0xbbde6fca	-0.0067882286
205	0xbe0339f6	-0.12815079
206	0xb91e848a	-0.00015117429
207	0xbe319f64	-0.17345959
208	0xbd380f7e	-0.04493665
209	0x3c8f942d	0.01752671
210	0x3c4c72d7	0.012478552
211	0xbda92d34	-0.08260575
212	0xbc289ed9	-0.0102917785
213	0x3c642a59	0.013926112
214	0x3e01a0f4	0.12659055
215	0xbc0b14d1	-0.00848885
216	0x3d5840a2	0.052796014
217	0xbe3fd3e1	-0.18733169
218	0xbe09d367	-0.1345955
219	0xbdaff99d	-0.08592532
220	0xba93b98c	-0.0011270507
221	0xbc87a63b	-0.016558757
222	0xbc78db6d	-0.015189034
223	0x3c9f8c84	0.019476183
224	0x3d43a983	0.04776908
225	0x3dd2b209	0.10287864
226	0xbe269125	-0.16266306
227	0x3cfa05d2	0.030520353
228	0xbc52e19a	-0.01287117
229	0x3e0edac0	0.13950634
230	0x3af2acd4	0.0018514642
231	0x3d060557	0.032719936
232	0x3ba7093d	0.005097537
233	0xbde9f455	-0.11423556
234	0xbdf01af9	-0.117238946
235	0x3e0aa785	0.13540466
236	0x3b0a9986	0.0021148636
237	0xbcfaa188	-0.030594602
238	0xb9be126a	-0.00036253344
239	0xbda3efbc	-0.0800471
240	0x3c27e265	0.010246848
241	0x3e15cec1	0.14629652
242	0xbd715a6e	-0.05892413
243	0xbe2b24a0	-0.1671319
244	0x3c1fb139	0.009746843
245	0x3bef467f	0.007302105
246	0x3df85ea7	0.121274285
247	0x3a057b68	0.00050919363
248	0x3dd1bf40	0.10241556
249	0xbdb56507	-0.0885716
250	0x3e3c872c	0.18410939
251	0x3ac75d54	0.0015210309
252	0x3a5c5f8d	0.0008406572
253	0xb8a1d2c7	-7.7163386e-05
254	0x3b35dc53	0.0027749732
255	0xbb936832	-0.004498505

decoder.0.bias f4 [784]
0	0x3d060c15	0.032726366
1	0x3b30a365	0.002695286
2	0xbafdf46a	-0.0019375209
3	0x3c91934f	0.017770438
4	0xbd1110e1	-0.035416488
5	0x3c7f5184	0.0155834
6	0x3c7e9ce1	0.0155403325
7	0xbb802280	-0.0039103627
8	0x3c8de169	0.017319398
9	0x3c46a8e0	0.012125224
10	0x3b02ec16	0.0019977144
11	0x3bd3ff38	0.0064696334
12	0xbb87bd12	-0.004142412
13	0xbcbac14a	-0.022797246
14	0xbc8a1029	-0.016853409
15	0x3b844789	0.004036848
16	0x3b9bcae7	0.0047544125
17	0x3c0dada1	0.008647353
18	0xbb10662e	-0.002203356
19	0x3d193018	0.03739938
20	0x3ac6d373	0.0015169218
21	0x3b7bbb70	0.0038411282
22	0x3bc4cbfc	0.006005762
23	0x3cfa1478	0.030527338
24	0xba949969	-0.0011337224
25	0xbc265d7b	-0.010154123
26	0x3cd15752	0.025554333
27	0xb958bec4	-0.00020670431
28	0x3d5ba4a4	0.05362381
29	0xbd16f4f1	-0.036854688
30	0xbaa256ca	-0.0012385484
31	0x3cccdc2d	0.025007332
32	0x3c82e4a8	0.015978172
33	0x3bb49584	0.0055109877
34	0xb9934735	-0.00028091078
35	0x3cfc49c5	0.030796895
36	0xbc10072f	-0.008790775
37	0xbd68fee2	-0.0568837
38	0xbc9f384a	-0.01943602
39	0x3d489652	0.04897148
40	0xbd635f3b	-0.05551074
41	0xb980f81f	-0.00024598927
42	0xbbfe50b6	-0.0077610863
43	0x39c434b2	0.00037423294
44	0xbae297f4	-0.0017287717
45	0xbd24c03e	-0.0402224
46	0x3caade75	0.020858029
47	0x3d41d803	0.047325145
48	0xbc108241	-0.008820117
49	0x3c25379c	0.010084059
50	0x3aee2ccf	0.0018171313
51	0xbd64e2dd	-0.055880416
52	0xbb612332	-0.0034353253
53	0x3c9c8a44	0.019108899
54	0xbc787282	-0.01516402
55	0xbad2ffe2	-0.0016097988
56	0xbca57dee	-0.02020165
57	0x3c1feca2	0.0097610075
58	0xbd1bcf97	-0.03803977
59	0x3d2631be	0.04057478
60	0xbbf4cec6	-0.0074709384
61	0xb8da7260	-0.00010416354
62	0x3ccba4b0	0.024858803
63	0xbc886931	-0.016651722
64	0xbae984fe	-0.0017816124
65	0x3b6829c6	0.003542529
66	0x3b875620	0.00413014
67	0x3c38f55a	0.011288965
68	0xbb4d701b	-0.0031347338
69	0x3d30124d	0.042986203
70	0x3c7cc4e7	0.015427805
71	0x3c5e2150	0.013557747
72	0xbd5ea376	-0.054355107
73	0xb5e1ca80	-1.6822742e-06
74	0xbb0458be	-0.0020194496
75	0x3cc9f7b7	0.024654252
76	0x3c0004f8	0.007813685
77	0x3ba4bd99	0.0050274846
78	0x3d16cd16	0.03681668
79	0xbcd35332	-0.025796507
80	0x3b1a6fc1	0.0023565146
81	0xbb998b1e	-0.0046857735
82	0xba005280	-0.0004895106
83	0xbbedc969	-0.007256676
84	0xbca3514b	-0.019936224
85	0x3c65bf51	0.014022664
86	0x3b3a03fa	0.0028383718
87	0xbaa05c32	-0.0012234508
88	0x3d1a5675	0.037680108
89	0x3d89823e	0.06714295
90	0xb93b0b1e	-0.00017837851
91	0x3b46740f	0.0030281579
92	0x3be871eb	0.007093658
93	0xbd00e96c	-0.03147261
94	0xbc9b6785	-0.01897026
95	0xbcaccdec	-0.021094285
96	0xbcbc8cf2	-0.023016427
97	0x3c600cb9	0.013674908
98	0x3ca07eb4	0.019591667
99	0x389d61f7	7.504591e-05
100	0x3b0cd505	0.0021489274
101	0xbd110155	-0.03540166
102	0x3ba41312	0.005007156
103	0xbc9ab3d6	-0.01888458
104	0x3d72b2d5	0.05925258
105	0x3c2e1d2c	0.010627072
106	0x3cc8f2ec	0.024529897
107	0xbb8d60dd	-0.0043145255
108	0x3c1366d2	0.008996682
109	0x3d3adae2	0.0456189
110	0x3bf36cd3	0.0074287443
111	0x3c4118aa	0.0117856655
112	0x3c7f5ce1	0.015586109
113	0x3c1134db	0.008862699
114	0x3cbda88b	0.023151657
115	0x3d40d729	0.047080193
116	0xbccafa37	-0.024777515
117	0xbb4d7c29	-0.0031354523
118	0x3c1ff965	0.00976405
119	0x3a82024a	0.0009918895
120	0x3d30fb26	0.043208264
121	0x3ce648a4	0.02811081
122	0x3cfe1366	0.03101511
123	0x3d093ca6	0.033505104
124	0x3d92b77e	0.071639046
125	0xba8ea418	-0.0010882644
126	0x3cbf345a	0.023340393
127	0xbd085ba9	-0.03329054
128	0xbc6d2ebd	-0.014476475
129	0x3d517af3	0.051142644
130	0x3c95116c	0.018196784
131	0x3caa7023	0.020805424
132	0x3daeba38	0.08531612
133	0x3d4f263d	0.050573576
134	0x3c896838	0.016773328
135	0x3d27fd8a	0.041013278
136	0xbd0b76a0	-0.034048676
137	0x3bda1259	0.0066550192
138	0xba01b702	-0.000494823
139	0x3d14ad09	0.03629783
140	0x3b52c53a	0.0032161013
141	0xbb9312e1	-0.0044883345
142	0xbb1fac46	-0.0024364158
143	0xb98be6ab	-0.00026684007
144	0xbce575ad	-0.028010214
145	0x3cb8162a	0.022471506
146	0x3bb083bd	0.005386798
147	0xbc476d0e	-0.012171997
148	0xbca2dd7d	-0.019881004
149	0xbd80a842	-0.06282093
150	0xbd3d169b	-0.046164136
151	0xbcebcd48	-0.02878441
152	0xbd800d17	-0.06252497
153	0x3d6750ca	0.05647353
154	0x3d944c6c	0.07241139
155	0x3cdecb0c	0.02719643
156	0xbcb4de37	-0.022078617
157	0x3caa0bb6	0.020757537
158	0xbc8731b3	-0.01650319
159	0x3ccea3ca	0.025224585
160	0x3d415d49	0.047208104
161	0xbc4a8d0d	-0.012362731
162	0x3bb90936	0.00564685
163	0x3d284a73	0.041086625
164	0xbce91dcd	-0.028456593
165	0x3c9f6fad	0.01946243
166	0xbb7bb4a5	-0.0038407233
167	0xbd3c9e71	-0.04604954
168	0xbca0e44d	-0.019640112
169	0xba15ed56	-0.0005719265
170	0x3b3de016	0.0028972677
171	0x3c86db40	0.016461968
172	0xbd22484a	-0.03961972
173	0xbd3ad92e	-0.045617275
174	0x3d9333b7	0.07187598
175	0xbcd0fb0f	-0.025510339
176	0xbc85d7df	-0.016338287
177	0x3d163fcc	0.036681935
178	0xbcd5c98e	-0.026097085
179	0xbd65c260	-0.056093574
180	0x3c543666	0.012952423
181	0x3cdd143a	0.026987184
182	0xbc219eec	-0.00986455
183	0xbc67caa7	-0.014147437
184	0x3ca22731	0.019794079
185	0xbd3d5cc0	-0.04623103
186	0x3d813f1a	0.06310864
187	0x3b2243b6	0.0024759597
188	0x3d908b09	0.07057769
189	0x3bbb1079	0.005708751
190	0xbcca899b	-0.024723819
191	0x3dc499ac	0.09599623
192	0x3d80378f	0.06260597
193	0x3c4148cd	0.011797142
194	0xbc606a86	-0.013697272
195	0x3d2bd598	0.041951746
196	0x39f4a075	0.00046658856
197	0x3bd85b21	0.0066026603
198	0xbc62e243	-0.01384789
199	0xbd004fae	-0.03132599
200	0xbd42bdb8	-0.04754421
201	0xbd1fbcca	-0.038998403
202	0xbcead454	-0.028665699
203	0xbd1a2d13	-0.037640642
204	0x3ab7d706	0.0014025874
205	0xbc53a5e6	-0.012917971
206	0x3dba269b	0.09089395
207	0x3d1ada35	0.037805755
208	0xbd70f3ce	-0.05882626
209	0xbdc9a5d0	-0.09846079
210	0x3aa4d94e	0.0012576969
211	0xbd2b311c	-0.04179488
212	0xbca99bab	-0.020704111
213	0x3da5e507	0.08100324
214	0x3d683945	0.05669524
215	0x3c9f75c1	0.01946533
216	0x3d1a3aae	0.037653618
217	0x3d9f8d22	0.07790591
218	0x3dbec2d6	0.09314506
219	0x3c0ca394	0.008583922
220	0x3d7a845b	0.06116138
221	0x3d17314c	0.036912248
222	0x3cb87dd1	0.022520931
223	0x3b38e553	0.002821286
224	0xbbbedd94	-0.005824754
225	0x3c3c9942	0.011511149
226	0xbb0058b6	-0.0019584126
227	0x3acc938a	0.0015607935
228	0x3c9ffd28	0.019529894
229	0xbb26bec8	-0.0025443304
230	0xbd25c968	-0.04047528
231	0x3aa7ed71	0.0012811852
232	0xbcf7151b	-0.030161431
233	0x3d64667f	0.05576181
234	0x3dc30f6c	0.09524426
235	0xbd765f42	-0.06014944
236	0xbd94303a	-0.07235761
237	0x3c62e04f	0.013847425
238	0x3b240254	0.0025025802
239	0xbd922653	-0.07136216
240	0x3cc5c708	0.024142757
241	0x3dc3c7a7	0.09559565
242	0xbbf952c4	-0.0076087434
243	0xbd140640	-0.036138773
244	0xbdec2c08	-0.11531836
245	0x3d60660d	0.054784823
246	0x3d9af7d2	0.07566799
247	0x3d30670f	0.043067034
248	0xbd650aa0	-0.055918336
249	0xbd8b1a08	-0.067920744
250	0x3a3868b8	0.0007034647
251	0xbc17949d	-0.009251741
252	0xbc392fc8	-0.011302896
253	0xbb930ac3	-0.004487367
254	0xbb40ef40	-0.002943948
255	0x3d047016	0.032333456
