a2/q4/autoencoder_64.pt (torch, 407048 bytes, 4 tensors)

encoder.0.weight f4 [64, 784]
000000 c1 97 e5 bc 93 5a 83 bc 16 a1 e1 3c 0e de 85 3c
       -0.028026463 -0.0160344 0.027542632 0.016341235
000010 3a 3b ab 3c 93 0b 01 bd 78 06 86 3c 80 a9 fc 39
       0.020902265 -0.03150518 0.016360506 0.00048191473
000020 30 93 82 bc 60 c7 11 bb de 81 f1 3c bb 83 0f bd
       -0.015939325 -0.002224408 0.02948087 -0.035037737
000030 06 86 5e bc 45 9c 90 bc 7c c3 5b bc 3c 81 ee bc
       -0.013581758 -0.01765264 -0.013413306 -0.029114358
000040 73 d9 c2 bc 80 65 07 3b f4 ab 51 3c ae c5 ff bc
       -0.023785328 0.0020659864 0.0127973445 -0.03122219
000050 b9 71 03 3d 43 08 91 bc 00 b8 eb 3a 40 69 e6 ba
       0.032090876 -0.017704135 0.0017983913 -0.0017578974
000060 5c 12 50 3c 17 ed 04 3d a0 7f 5d bb f8 8b 27 bc
       0.01269969 0.03245267 -0.0033797994 -0.010226242
000070 fe 07 ff bc 4a 7a c5 bc 7c 31 b0 3c 1c d4 b5 3c
       -0.03113174 -0.024106164 0.021507971 0.022195868
000080 b8 84 fb bc b0 a7 ad 3c 5a 94 da 3c 4e 25 4f bc
       -0.030702934 0.021198124 0.026682068 -0.0126431715
000090 71 da 09 3d 30 7e 0e bb 66 da eb 3c 33 00 04 3d
       0.033655588 -0.0021742694 0.028790664 0.032226752
0000a0 f4 51 1e 3c 9c 07 cc bc 66 bf f0 3c ee 1c e9 3c
       0.009663094 -0.024905972 0.02938814 0.028456178
0000b0 8e 63 8e 3c 90 f0 81 bc 50 95 45 3c 8c 9e e3 bc
       0.017381456 -0.01586178 0.012059525 -0.027785562
0000c0 20 36 6c 3c a3 09 88 bc e8 f8 87 bb 3c 5f 16 bc
       0.014417201 -0.016606158 -0.004149545 -0.009177979
0000d0 c3 01 08 3d ae 99 4e bc 00 33 c6 3b 9e 47 8c 3c
       0.033204805 -0.012609882 0.00604856 0.017123993
0000e0 30 af 0c 3b 92 c7 f9 3c 83 68 01 3d 00 12 e5 38
       0.0021466725 0.03049067 0.03159381 0.00010922924
0000f0 e0 85 6e bb df 82 07 3d 88 4d 8e 3c b2 73 c5 3c
       -0.0036395714 0.033083793 0.017370954 0.02410302
000100 6d 4f 02 bd d0 54 50 3c a0 6e dd 3a a8 e8 3e 3c
       -0.031814028 0.012715533 0.0016893931 0.011652149
000110 68 0b 73 3c 90 da a6 bc 2f 91 10 bd d0 65 2f bb
       0.014834262 -0.02036789 -0.035294708 -0.0026763566
000120 18 75 be 3c 00 2a 09 3c 8e 20 6e bc 77 08 98 bc
       0.023249194 0.00837183 -0.014534129 -0.018558724
000130 72 b9 ce 3c 60 00 c9 ba 9c 50 35 bc ca 6a 07 bd
       0.025234912 -0.0015335195 -0.011066582 -0.033060826
000140 a8 d3 d6 3b 18 c3 f9 bc b2 57 02 bd 7e ae d9 3c
       0.006555993 -0.030488536 -0.031821914 0.026572462
000150 f4 c2 41 3c e2 8b ff 3c 76 52 fa 3c 60 29 36 3c
       0.011826266 0.031194631 0.030556899 0.011118263
000160 c0 b2 1f bc 26 0d 07 bd 60 db ba bc ca 79 89 bc
       -0.009747207 -0.032971524 -0.022809684 -0.016781706
000170 18 8b 13 3c 0e f4 34 bc 73 09 b5 bc 88 7d f3 bc
       0.0090053305 -0.011044515 -0.022099232 -0.029722944
000180 4a bb f7 bc 5b 54 15 bd 35 70 c2 3c 00 f0 34 bc
       -0.030240674 -0.0364574 0.023735145 -0.011043549
000190 b6 f7 e8 3c 80 09 dc 3a 25 76 64 3c f9 9e 8d bb
       0.02843843 0.0016787499 0.0139441835 -0.0043219295
0001a0 31 4f c5 3b f4 f8 bf 3c 71 e4 01 bd de 1f 96 3c
       0.0060214032 0.02343414 -0.031712 0.018325742
0001b0 26 2f 49 bc f8 2d e2 bb 90 94 a9 3b 06 7f 24 bc
       -0.0122793075 -0.0069024526 0.0051751807 -0.01004005
0001c0 ce ab c3 bc e0 4a d1 3c a0 7d 99 3c 50 41 a7 3b
       -0.023885634 0.025548398 0.01873666 0.0051042214
0001d0 08 9a 83 3c 78 d7 49 3c 1a cc f7 3c 72 29 c4 3c
       0.016064659 0.012319438 0.03024869 0.023945544
0001e0 75 0d 99 bc 69 12 a7 bc 69 0e fe bc 9a 0d 49 3b
       -0.018683175 -0.02039452 -0.03101273 0.0030678273
0001f0 7c 15 90 bb 4c e2 4d 3c 88 d9 a0 3c 1c fc ee bb
       -0.0043970924 0.01256616 0.019634977 -0.0072932374
000200 3e f7 d4 3b 0d b1 b5 3c 05 b3 95 bc 8f 52 98 3c
       0.0064992 0.022179151 -0.01827384 0.018594055
000210 ef f1 a0 bc 1a cd 80 3c f9 e4 f6 bc 8b 57 0d bd
       -0.019646613 0.0157228 -0.03013848 -0.034507316
000220 81 2c ad bc d0 86 fe 3b 6c fb dd bc 23 75 c3 bc
       -0.021139385 0.0077675357 -0.027097426 -0.023859566
000230 e0 20 0e bc e2 24 ef 3c 8e 5d a5 bc 38 44 10 3c
       -0.00867483 0.029192392 -0.020186212 0.008805327
000240 b2 a9 ef 3c 08 48 de 3b 38 40 84 3a 76 68 23 bc
       0.029255722 0.006783489 0.001008994 -0.009973636
000250 e9 c7 62 bc 26 80 82 ba b0 d5 21 bd 68 bf c4 3c
       -0.013841608 -0.0009956404 -0.03951043 0.02401705
000260 6e 0c a4 3c 9c 17 92 bc 05 d2 bb bb 37 95 01 bd
       0.020025458 -0.017833523 -0.0057318234 -0.031636443
000270 f2 b8 c5 bc 0d f4 21 bd 22 ce 33 bd 3c d9 8b bc
       -0.02413604 -0.039539386 -0.043897755 -0.017071359
000280 84 45 8b bc 48 92 e2 3a b4 f4 4a bc 40 29 de 3c
       -0.017000921 0.0017286027 -0.012387443 0.027119279
000290 df df 2e bd 69 26 cb bc 5a 8f cf bc c0 46 d3 3a
       -0.04269397 -0.024798589 -0.02533691 0.0016119108
0002a0 0a 4e a1 3c 83 da b1 bc ba 1b ca bc de 9c cf 3c
       0.019690532 -0.02171064 -0.024671424 0.025343355
0002b0 d8 77 14 bd 02 01 09 bd 77 5a f1 3c 7c a8 ec bc
       -0.036247104 -0.033448227 0.029462082 -0.028888933
0002c0 12 b3 e4 bc ec 03 03 3a b5 9d e1 3a ad 9f 61 bc
       -0.027917419 0.0004997838 0.0017213138 -0.01377098
0002d0 49 a4 30 3a 35 58 c9 bc e5 0f c8 3a 24 41 82 bc
       0.00067383476 -0.024578193 0.0015263526 -0.015900202
0002e0 37 fc fa bb 09 58 9f 3b da 2e 95 3c 4b 65 25 bd
       -0.007659461 0.0048627895 0.018210817 -0.040379804
0002f0 ad 36 aa bc 0f 54 eb 3b d3 08 53 bc 4c 1a ff bc
       -0.020778025 0.0071816514 -0.012880522 -0.031140469
000300 12 c9 6a 3c 1a 5a c8 3c b1 4e 2c 3c 00 61 19 39
       0.014330165 0.024457026 0.010516808 0.00014627352
000310 c6 48 ce 3c 5a 63 89 bc d5 f4 d6 bc 28 11 a5 bc
       0.025181185 -0.016771007 -0.026239792 -0.020149782
000320 5d 39 d5 bb ba 5e 5a bb 3c c0 ca bb be b5 9f bc
       -0.0065070824 -0.0033320622 -0.006187467 -0.019495841
000330 0e fa 15 bd 93 0a 29 3c 65 33 0f bc 61 c7 2c 3c
       -0.036615424 0.0103174625 -0.008740281 0.0105455825
000340 af 0b a5 bc 1a c4 1e bd 08 11 89 bc 5a c7 1c bd
       -0.020147173 -0.038761236 -0.016731754 -0.038276054
000350 1e 4f 11 bc b2 62 1c bc ac 62 18 bd e0 dc 23 bc
       -0.008868961 -0.009545015 -0.037203476 -0.010001391
000360 9c 3b 15 3b f4 25 e5 bb a3 36 08 bd 29 7b 25 bd
       0.0022771126 -0.0069930498 -0.03325523 -0.040400658
000370 a4 b0 9c 3c 91 66 20 3c a0 24 95 bc f2 7b b2 3c
       0.019127198 0.009790079 -0.01820594 0.021787617
000380 90 ac 9d 3b 4e fd ff 3c 50 c5 8f 3c dd 5b 16 bd
       0.004811831 0.031248715 0.01755014 -0.0367087
000390 d2 b0 db bc 09 0e 4d 3c f3 08 fa 3b 18 85 16 bd
       -0.026817713 0.012515553 0.0076304614 -0.03674802
0003a0 f4 9c c5 3c dc d8 3c bb 4b 8a bb 3c 14 a6 1e bd
       0.024122693 -0.0028815782 0.022893092 -0.038732603
0003b0 0e b9 92 bb 4f cb d1 3c 8e 75 2e bd c9 f1 a7 b8
       -0.0044776266 0.02560964 -0.042592578 -8.0082165e-05
0003c0 b3 d6 f8 bc f2 67 84 3a 96 65 a1 39 9a bb 8c ba
       -0.030375814 0.0010101779 0.00030784 -0.0010737062
0003d0 f1 28 90 bc 49 8b d3 bc 9a d2 83 bc ad 48 a0 3b
       -0.017597647 -0.025823252 -0.016091634 0.004891476
0003e0 f5 01 93 bc 2e 90 e0 bc e0 6a 79 3c f8 23 51 bc
       -0.01794527 -0.0274125 0.015223235 -0.012764923
0003f0 3a ec a4 3c d0 9d 61 3c 55 ca 04 bd ed 98 08 bd
       0.020132173 0.013770536 -0.03241952 -0.033348966

encoder.0.bias f4 [64]
000000 72 cb 51 3c dd dc 22 bd e6 6e 1e bd bb e8 77 3c
       0.012804853 -0.039761413 -0.03867998 0.015131171
000010 bd 20 d8 3c 5c 42 48 3d 84 0c 6d bb 63 06 14 bd
       0.026382798 0.04889141 -0.003617079 -0.036138903
000020 e7 ea 91 3d 8d 0a b8 3d d9 49 b1 3c 2e c8 c9 bb
       0.07124882 0.089863874 0.021641659 -0.0061578965
000030 0e 8f f6 bc 06 1f d8 3c 1f 15 8e 3d 22 88 a1 3b
       -0.03009751 0.02638198 0.06937622 0.0049295584
000040 53 d8 9d 3c 69 65 d4 bc 07 4c 9b bb 4d f2 96 3b
       0.01926819 -0.025927262 -0.004739288 0.004606521
000050 af 75 87 3c 5e 8c 40 bc 28 80 b6 bc 81 0b af 3d
       0.016535608 -0.011752216 -0.022277907 0.08547116
000060 9d f0 0b 3c 92 94 ea 3c a5 71 91 bb 6e 52 6c bc
       0.008541253 0.028635297 -0.0044385963 -0.01442395
000070 60 b8 ff bc 75 88 16 3c 96 fe ce bb 8d 4e d7 3d
       -0.031215847 0.009187807 -0.00631697 0.10513029
000080 a2 c6 9a bc 99 92 51 3c 50 1e f0 bb a5 05 1e 3c
       -0.018893544 0.012791299 -0.0073278323 0.0096449
000090 c5 8c 49 bc 65 39 3d bc 72 2e cf 3c aa 52 8e 3d
       -0.0123016285 -0.011549328 0.025290702 0.06949361
0000a0 f6 29 61 3d eb 4a ad ba 8e e3 d5 3d e0 79 9f bc
       0.054971658 -0.001322118 0.10443793 -0.019467294
0000b0 0d 9e c0 bc d8 3f 63 3d 34 a8 d7 3b a4 d2 1d bd
       -0.023512864 0.055480808 0.0065813307 -0.03853096
0000c0 36 c5 89 bc 92 87 b9 bc d0 56 9b bc ad a8 63 bb
       -0.01681767 -0.022647653 -0.018962294 -0.003473799
0000d0 1e a3 a1 bc 09 f4 e5 3b 8e 4d 3a 3d 37 5d 54 3c
       -0.0197311 0.0070176166 0.04548412 0.012961677
0000e0 23 75 8e 3d 89 8c 4e 3c a0 d0 8c 3c 1a ec 08 3d
       0.06955936 0.012606748 0.017189324 0.03342829
0000f0 93 75 4e 3b b4 e0 4a 3b f1 f0 cd 3d 29 ad 99 3d
       0.0031503185 0.0030956687 0.100557216 0.07503731

decoder.0.weight f4 [784, 64]
000000 94 4e 81 bd 0e 68 48 bd 91 2e ae ba 52 44 b8 3c
       -0.06313816 -0.04892736 -0.0013289024 0.022493515
000010 f6 a1 62 bb 90 6d c7 bb 25 ac 97 3d d6 3d d8 3d
       -0.00345814 -0.006086059 0.07405881 0.10558669
000020 55 4e 9f ba 60 12 3f bc 04 71 6f bd d9 19 c6 bd
       -0.0012154082 -0.011662096 -0.05845739 -0.09672899
000030 76 15 4a bd a3 98 c6 3d d2 53 cc 3b 95 cf 47 bc
       -0.049336873 0.09697082 0.006235578 -0.0121954875
000040 2d 67 d3 3b da b1 c6 bd 45 d7 fe bd ee 4c d2 3d
       0.0064515085 -0.09701891 -0.12443403 0.102685794
000050 73 44 2d bb f2 e9 e4 3b 71 b8 0a 3d 27 bb ef bb
       -0.0026438504 0.0069858963 0.033867303 -0.0073160115
000060 80 4b 0a 3c 96 bf c9 3b 97 ae a5 3d 62 6c 40 3c
       0.008440852 0.006156872 0.08089941 0.0117445905
000070 14 16 e9 3b 3a dd 08 be 8a 51 7d 3d 81 27 25 3a
       0.0071132276 -0.13365641 0.06184534 0.0006300137
000080 da 65 03 3c ec ac dc 3b cd c3 81 bd 7a 47 7a 3c
       0.008019889 0.006734481 -0.06336174 0.01527583
000090 2b 4c c3 3c a0 c1 24 bc f4 b8 87 3c 33 60 79 bc
       0.02384003 -0.010055929 0.016567685 -0.01522069
0000a0 c9 c7 ee bb 1c 9b a3 3d 7e db a5 ba 46 27 61 3d
       -0.007287 0.07988569 -0.0012653915 0.054969095
0000b0 ad c0 a4 bd 4d b5 50 3a 3d 1c c8 bd 87 21 cd 3d
       -0.080445625 0.0007961586 -0.09771011 0.100161605
0000c0 aa bb 21 3b 50 1b 9a 3d 57 3a 3b 3c d5 4d cd 3a
       0.0024678507 0.07524741 0.0114274835 0.0015663455
0000d0 2c 77 b0 3d 58 0e 3c bb 7d e4 91 3b bd e0 23 bc
       0.0861648 -0.0028695073 0.0044522868 -0.010002312
0000e0 c7 8f 4f bc d4 99 a5 bd d9 7e 3d bd 63 37 7e bb
       -0.0126685565 -0.08085981 -0.04626355 -0.0038790337
0000f0 3a c1 c5 3c cd 85 94 bb a6 49 85 3c 73 d1 b4 3b
       0.02413999 -0.004532552 0.01627047 0.0055181324
000100 71 03 63 bd b7 69 d8 bb df 57 c0 3d 67 71 3c 3d
       -0.055423204 -0.006604399 0.0939176 0.046006586
000110 00 ae 01 3d 5e 4e 75 bc b7 2f 46 bd 70 ec 08 3d
       0.03166008 -0.0149722975 -0.04838535 0.03342861
000120 18 c1 c1 bb 79 af 67 bc ff 6b 53 bd 24 b4 68 3d
       -0.005912911 -0.014140957 -0.051616665 0.05681242
000130 9b 13 72 3d a7 11 30 3d 11 85 1d 3c bd 83 35 bc
       0.05910073 0.042985585 0.009614245 -0.011078772
000140 b1 7e 41 3c fa cd 19 bc 5e 68 c9 3d 1b c4 fc bd
       0.011809991 -0.009387488 0.098343596 -0.12342092
000150 88 43 0c 3c 62 b8 87 3d df 1c cc 3d b2 64 33 3c
       0.008561023 0.06626965 0.09966444 0.010949301
000160 24 ab 72 bc 70 aa 63 3c 0b 72 a3 bd 9c c2 f6 ba
       -0.014811311 0.013895616 -0.07980736 -0.0018826309
000170 6b f2 dd 3d 78 eb b0 bd 7a 1e 85 3c 02 41 0f 3c
       0.10837253 -0.08638662 0.016249884 0.008743526
000180 f5 4e 8e bb 5e 0c e2 3d f0 14 b7 bd 36 2c b4 3c
       -0.0043429085 0.11037515 -0.089395404 0.021993738
000190 8a 08 82 3d 7b c5 13 bb ff de 08 3d ed 6f 16 bc
       0.06349285 -0.0022548127 0.03341579 -0.009181959
0001a0 e1 bc 13 bc 7b 9d 4d bd 0a 05 50 bb b0 f0 a2 3d
       -0.0090172 -0.050199013 -0.0031741285 0.07956064
0001b0 54 bc d6 bc 3e 71 4b bc e3 2b cd 3c fe ca 92 3b
       -0.026212849 -0.012417136 0.02504534 0.004479765
0001c0 66 40 f3 3a 0e 02 b6 bc 68 09 55 3d 07 f1 1c 3c
       0.0018558621 -0.022217777 0.052010924 0.00957895
0001d0 0e 3f 80 bd 73 66 87 bc 33 c1 e3 ba 8b c6 01 bd
       -0.06262027 -0.016528344 -0.0017376303 -0.031683486
0001e0 4e 7e 18 bc fe cb 27 bd d6 56 17 3d f7 f1 1d bc
       -0.009307457 -0.040966026 0.036948048 -0.009640208
0001f0 b5 9f 9d bd f0 59 a6 ba 5c f3 53 3c 56 71 f0 bb
       -0.07696477 -0.0012691598 0.012936439 -0.0073377294
000200 ed 7b ce bd 70 14 d3 3d 40 ac ce 3d 46 c7 38 3c
       -0.10082231 0.103066325 0.10091448 0.011277979
000210 85 7d ce bc 04 c7 3a ba 50 a9 af bd 1f c8 8c bb
       -0.025206337 -0.00071249926 -0.08577216 -0.004296317
000220 19 58 e8 3b 67 3f f9 bb 1f c4 83 3d 1d ee 03 be
       0.00709058 -0.007606435 0.064338915 -0.12883802
000230 42 df da 3c 2c f2 84 3c 5e 40 aa bb 14 6b 11 bb
       0.026717786 0.016228758 -0.0051956614 -0.0022189068
000240 2f 2e 48 bb d5 74 c0 3d a6 de bd 3c bd 89 a0 bc
       -0.0030545106 0.09397284 0.023177456 -0.019596929
000250 f5 a5 80 3b cd 68 50 3d a4 bb f4 bb 86 29 a4 b8
       0.0039260336 0.050881196 -0.0074686576 -7.827864e-05
000260 f3 99 26 3c f1 13 9c bb ba a3 91 bd ea a0 07 bc
       0.01016854 -0.0047631194 -0.071113065 -0.008278111
000270 a4 a2 ee 3c d2 64 a8 3c d8 41 d3 3d 8d 36 3e bc
       0.029130287 0.020555887 0.10315293 -0.011609686
000280 95 86 db 3b 7c 8a b6 bd ce ec 7c 3d 44 0c 99 bc
       0.006699393 -0.089131325 0.061749272 -0.018682607
000290 17 55 b9 3c 0e 74 96 3b d5 df 29 3d b8 f1 f2 bb
       0.022623582 0.0045914715 0.04147323 -0.007414069
0002a0 1c 89 84 3c ec 78 94 3d 68 fb 0d 3c 7b b4 b9 bd
       0.01617866 0.072496265 0.008665897 -0.09067627
0002b0 51 8c 3b 3d ff 71 84 3c 4d ca c9 3d b1 2a 9d bc
       0.045788113 0.016167639 0.09853039 -0.019185396
0002c0 35 28 5f 3b 02 d3 02 bd ba bf 98 3d a4 af b4 bc
       0.0034051065 -0.031939514 0.07458444 -0.022056408
0002d0 3e 9d 2b bd 10 14 94 3b b1 a4 46 3c d7 0e 28 3d
       -0.041898005 0.004518993 0.012124226 0.041029777
0002e0 8e b1 22 3b a8 b0 a3 3d 02 16 f6 bc ec fb a3 3b
       0.002482507 0.07992679 -0.030039791 0.0050043967
0002f0 4d a4 13 bc 95 a7 3d 3c 15 53 31 bc a5 03 33 bb
       -0.00901134 0.011575599 -0.010823031 -0.0027315405
000300 06 cb 42 3c 03 2f 8e 3d a1 6c ad 3d 77 d1 d0 bd
       0.011889225 0.069425605 0.08467985 -0.10196202
000310 30 ee 90 3c e9 99 53 3c 34 39 8a bd 01 ad f5 3d
       0.017691702 0.012915113 -0.06749192 0.119958885
000320 c8 4f 42 bc fc 30 e4 3c 79 12 e5 bd e5 9d c4 bd
       -0.011859842 0.027855389 -0.11185164 -0.096004285
000330 33 c4 66 bd be d8 e0 3d 72 e0 e6 bb b4 9b 9a 3c
       -0.056339454 0.1097884 -0.007045799 0.018873073
000340 3a c5 62 bb 27 28 ed bd f0 79 c3 bd 9e 34 9b bc
       -0.003460242 -0.11579924 -0.09544742 -0.018945988
000350 8b c2 4b bc 6f b8 aa 3d 29 39 7a bd 23 3f 11 bc
       -0.012436519 0.08335959 -0.06108967 -0.008865151
000360 88 8b b5 3a 4e bd 4a bc 9a 37 85 3d fc 0c 47 3c
       0.0013850788 -0.012374235 0.06504746 0.012149092
000370 92 c5 81 3d 83 24 c2 3d 94 af 5f 3d 6c 08 97 3b
       0.06336512 0.0947962 0.054610804 0.0046091583
000380 7e 60 59 bc a9 b1 dd bc 50 43 be 3d 38 c6 f2 ba
       -0.013267634 -0.027062254 0.092901826 -0.0018522209
000390 bf 7f a4 bb 00 27 b4 bb 39 66 1b bc c0 1a a3 3c
       -0.0050201113 -0.005497813 -0.009484821 0.019910216
0003a0 7f 19 5f bc 97 2b f0 bc 4e b6 e1 bb 53 66 87 3d
       -0.013616919 -0.02931766 -0.0068881875 0.06611314
0003b0 a4 d3 d3 bd 44 04 a7 bb 01 7f 8f bc 2d 3f 94 3c
       -0.103431016 -0.005096944 -0.017516615 0.01809653
0003c0 fc 07 9a bc b7 cb 98 3d 38 e5 30 bc 7b e4 66 3c
       -0.018802635 0.074607305 -0.0107968375 0.01409256
0003d0 4c 5f 77 bd b0 98 02 3c 0b 70 ad bc 76 5a e1 bc
       -0.060393617 0.007970974 -0.02117159 -0.027508955
0003e0 a9 85 8a 3c e4 a0 44 3d 45 65 00 3e 21 1d 08 3c
       0.016909437 0.048005 0.12538631 0.008307726
0003f0 27 df 03 bd 99 6b 81 bb ce 7a c2 3a cc de 00 3c
       -0.032195237 -0.003949594 0.0014837624 0.007865619

decoder.0.bias f4 [784]
000000 c7 cd 10 3c 67 d7 96 3c 15 a6 92 3b f2 30 19 bb
       0.008838124 0.018413259 0.004475365 -0.002337512
000010 dc 38 e4 bc 8d 15 34 3d e4 6e bd ba e1 ea 0c bc
       -0.027859144 0.043965865 -0.0014452604 -0.008600921
000020 e5 9b e4 bb a2 c2 b3 bc 2b bd f9 bb cd 77 92 bc
       -0.006976592 -0.021943394 -0.0076214275 -0.017879391
000030 d2 ba 45 3b 11 68 8f bc 1d e7 29 bc b3 d1 55 3a
       0.0030171168 -0.017505677 -0.010370043 0.0008156553
000040 6e 13 e0 39 97 ca 89 3a f0 96 9d 3a c9 ce a9 bb
       0.00042739086 0.0010512647 0.0012023132 -0.0051821214
000050 99 13 92 39 5a 0e 27 3b 7a f3 f5 39 de 71 90 bb
       0.0002786189 0.0025490732 0.00046911446 -0.0044081053
000060 e3 36 b7 3c ab b7 da bb 6c 6a 1f bb 3e b6 9a bc
       0.02236504 -0.006674727 -0.0024324907 -0.018885728
000070 0c 12 07 bc ba ea 8f 3c 01 97 9f ba a0 54 85 bb
       -0.008244049 0.017567981 -0.001217574 -0.004068926
000080 92 2a ad bb e2 1e 7c 3c d5 16 80 3a cf e5 91 bc
       -0.005284616 0.015388222 0.000977243 -0.017809777
000090 e0 3c 69 3b 0e 55 8b bb 36 d8 37 3c 81 d2 cd 3b
       0.0035589263 -0.0042520827 0.011220982 0.0062811975
0000a0 01 36 af 3b 95 4a 94 bb 14 a9 f9 ba 87 67 3e bc
       0.005347014 -0.0045254924 -0.0019047582 -0.0116213625
0000b0 d3 e9 83 3a 21 eb 17 3c 72 ec b7 3b 44 c9 c6 3a
       0.0010064192 0.009272368 0.0056129033 0.0015166183
0000c0 e6 82 3c 3b 0f 2d 07 bd 0c 3f ad 3b 87 c4 4a bc
       0.0028764545 -0.033001956 0.005287057 -0.012375957
0000d0 eb ec 96 3a 4f 01 56 3c 39 eb cb 3c 3c 14 d5 3c
       0.0011514699 0.013061835 0.024892436 0.026010625
0000e0 41 38 f6 3b e5 45 24 3a 8c a7 6a 3b d8 1a bf 3a
       0.00751403 0.00062665186 0.0035805432 0.0014580144
0000f0 cf 00 17 bc ac de b6 3b 36 a2 c0 bc 3d 2b c4 bc
       -0.009216501 0.005580744 -0.023514848 -0.023946399
000100 fd 76 94 3b 88 98 b9 39 14 fa ad 3c a8 63 78 bb
       0.004530786 0.00035399594 0.02123741 -0.0037901197
000110 84 64 e2 bb 69 30 0b 3c d0 6e 00 3c c5 a1 9d 3c
       -0.006908955 0.008495429 0.00783892 0.019242177
000120 b9 1a ad bb a1 2b bd ba 31 1e 0d bc 49 89 63 3b
       -0.0052827266 -0.0014432558 -0.008613155 0.003471928
000130 75 80 ae bb 8f bd b2 3b 58 44 c4 bb c1 15 70 bc
       -0.005325372 0.005454726 -0.0059895925 -0.014653624
000140 2a f4 fc ba 08 66 33 3b a8 65 29 bc 13 1d 11 3d
       -0.0019298841 0.0027374048 -0.010339178 0.035428118
000150 71 ab aa bc 14 2a f3 ba ea 31 42 bc 39 e4 bd bc
       -0.020833703 -0.0018551969 -0.011852721 -0.023180114
000160 3e 12 0a 3a 0c 80 18 3d c7 42 8c 3b 7d 43 cd bc
       0.00052670005 0.03723149 0.0042804214 -0.025056595
000170 5e 3c 15 3c 1c b6 9c 3b ee 54 8a bb 63 1f 3b 3c
       0.009108631 0.0047824513 -0.00422155 0.011421057
000180 76 08 74 3c 67 be 6d bb b0 5a 4b 3c 66 ba 22 3d
       0.014894595 -0.0036276819 0.012411758 0.039728545
000190 6d 6b b8 3c 4b 89 34 3b 84 b0 9c ba ba c8 12 3c
       0.022512162 0.0027547653 -0.0011954461 0.00895899
0001a0 e5 d6 48 3c ac b1 6f 3c 2b e6 32 3c e3 c4 c7 bc
       0.012258266 0.014629763 0.010919134 -0.024385875
0001b0 5e 83 01 bd d7 e1 31 3c 5d 5b 15 3c 16 18 ed bc
       -0.031619422 0.010857067 0.009116021 -0.02894215
0001c0 39 2e ae 3a 3f ec 0e bc 7d d8 bd bc 84 ad 26 bb
       0.0013288922 -0.008723318 -0.023174519 -0.0025433013
0001d0 e6 1f 82 b9 5e 56 b8 ba 1f 67 ba 3a 85 e2 dd 3c
       -0.00024819298 -0.0014063825 0.0014221406 0.027085552
0001e0 b5 b6 92 3c 1a d3 ad 3c bb 99 51 3b e2 27 8c bc
       0.017909387 0.021218825 0.00319825 -0.017108861
0001f0 a0 27 3e 3d 52 20 59 3d e5 66 69 3d a1 46 47 bc
       0.046424508 0.05300934 0.056982893 -0.012162835
000200 95 19 50 3a 36 40 c0 3c 1a e0 ec 3c 09 a3 96 3d
       0.00079383823 0.023468118 0.028915454 0.07355315
000210 21 06 13 3d 52 83 57 3d dc e2 43 3c 51 da 9c 3c
       0.035894517 0.05261547 0.011955943 0.01914707
000220 68 d2 45 3c 77 4d c7 bc 88 69 55 3c 0d b6 01 bc
       0.012074091 -0.02432893 0.013025649 -0.007916939
000230 d6 2f c5 3c a3 a1 36 bc 70 cd eb ba e4 05 9d 3a
       0.024070662 -0.011146936 -0.0017990302 0.0011979905
000240 c2 ff 8f bc cf 19 a2 bc 70 7f b7 3c f5 22 3c 3c
       -0.01757801 -0.019787697 0.022399634 0.011482944
000250 d6 c0 23 3c d5 12 b6 3c 52 91 6c 3d bd 8b 66 3d
       0.009994706 0.022225777 0.057755776 0.05628561
000260 13 55 55 3b 02 cd 99 3d 91 a9 c6 bb b8 73 09 3d
       0.003255193 0.07509805 -0.0060626944 0.033557624
000270 ae 89 0e 3d 16 79 55 3d 5c 13 56 bd 64 83 a6 3c
       0.03479927 0.05211743 -0.052264556 0.020326324
000280 b9 fc 51 3d 46 55 58 3d 10 57 90 3d 41 c7 d1 3c
       0.051266406 0.052815698 0.07047856 0.025607707
000290 28 fa fa bc 8e a0 0b 3c f6 aa 27 3b 49 68 bd 3b
       -0.030636862 0.008522166 0.0025584078 0.005780254
0002a0 43 80 92 bc 74 61 79 3b 05 34 1a bb 83 97 79 bc
       -0.017883426 0.0038052471 -0.0023529541 -0.015233877
0002b0 e0 87 0c bc 05 6c f9 ba bb 5f 7d 3c e2 ed e2 3b
       -0.008577317 -0.0019029385 0.015464718 0.0069253305
0002c0 ca d8 50 3d 84 71 e1 bc f9 e3 47 3d 04 a2 e4 bc
       0.050987996 -0.027519949 0.048801396 -0.027909286
0002d0 db e1 9a 3d 7b 8a 9c 3d c4 93 c7 bc 02 59 2e bd
       0.0756261 0.076436006 -0.024362452 -0.042565353
0002e0 71 b0 79 3b 8d 8b 95 3a 57 05 05 bd 1d cb 5f bd
       0.0038099552 0.0011409387 -0.032475796 -0.054637063
0002f0 95 4d b2 3d 69 ea 51 3d 4d 93 2e 3d 90 44 92 bb
       0.08706204 0.05124894 0.042620946 -0.0044637397
000300 13 17 56 3c 61 eb 66 bc 56 23 a1 3b 60 ce 2d bb
       0.013067025 -0.014094205 0.0049175425 -0.0026520714
000310 f4 dd 0b 3b f7 36 1a 3c 0c 2f c0 bc 87 ed b2 3b
       0.0021342011 0.009412519 -0.023459934 0.0054604444
000320 13 f8 e2 bc 2b 7a c5 bc 9f e6 5a bd 52 ab 62 bc
       -0.027706182 -0.024106106 -0.053442594 -0.013834791
000330 a7 be 1f 3d bd 6e 58 bd ae 65 11 3d 76 a1 88 3d
       0.03900018 -0.052839983 0.03549736 0.06671421
000340 6e 74 88 3d 87 15 fd bb 1a d3 a6 bd f1 33 32 bd
       0.06662832 -0.0077235135 -0.08145733 -0.043506566
000350 43 58 aa bd 8e b5 7b bb 54 58 4f bd c0 af a3 3c
       -0.08317616 -0.0038407776 -0.050621346 0.019981265
000360 4d 8b 10 3d 85 20 60 3d f9 56 de bc a3 31 00 bc
       0.035289098 0.054718513 -0.027141081 -0.007824334
000370 59 02 9d 3a 8b 06 6e bc 18 67 b7 3a 28 e3 b7 bc
       0.0011978849 -0.014527927 0.0013992516 -0.022447184
000380 d0 44 a1 3a 4f cb b5 bb 9d b3 4e 3b 3f 13 23 bc
       0.0012303833 -0.005547918 0.0031540163 -0.009953319
000390 29 4e 2d bd 26 30 df bb 2f 88 4a 3d 87 6f 44 bd
       -0.042310867 -0.0068111597 0.04944628 -0.047957923
0003a0 4c dc fc 3c ad 13 8f bd 12 c2 1b bd 20 2b 69 bb
       0.030866764 -0.06986175 -0.038026877 -0.0035578683
0003b0 b5 0b 0d 3c 05 75 3c bd 08 f9 c4 bd 26 e1 f8 bb
       0.008608748 -0.046010036 -0.096178114 -0.007595199
0003c0 c2 76 86 ba 5f 60 2a bd 1d 16 2a bd af 86 62 bd
       -0.0010258781 -0.041595813 -0.041524995 -0.055304226
0003d0 9c 74 9a bb 58 a7 d5 3c ab 43 aa ba 17 0a 10 bb
       -0.004713608 0.026080772 -0.0012990137 -0.002197867
0003e0 a9 d3 8f bc bc 1b c7 3b 4f 1f ca 3c 55 9f d3 3b
       -0.017556982 0.0060763042 0.024673132 0.006458203
0003f0 65 cb 5e bb 8c 24 62 3c fd b0 15 3c 0a f8 a5 bc
       -0.0033995744 0.013802659 0.009136436 -0.020259876
